hw1/numpy/442solutions/w11.npz (npz, 3810 bytes, 15 tensors)

2210 f8 [10, 1]
00000000: 7192 28c5 71f0 1140 e7df 06ab 3540 0a40
00000010: 00b3 0305 959c 15c0 9624 0f29 d1a9 15c0
00000020: efd2 af25 c907 0540 8fc3 5d19 364c 02c0
00000030: 0042 07a2 4c10 1940 06f9 f765 833c e7bf
00000040: bbd8 050f cb13 26c0 99f9 4152 9173 f43f
4.484808998681374 3.281352363726899 -5.402912214613707 -5.415836946057558 2.628801626613828 -2.2872125608195755 6.265917331402761 -0.7261368743491239
-11.038658589805314 1.2782147610847459

2600 f8 [10, 1]
00000000: fb49 6472 a86a 0cc0 d3c3 5fef 3309 04c0
00000010: f985 c5f9 ecf3 1640 3818 65c5 725b ef3f
00000020: def2 81f9 af55 2040 1aae e328 c508 1940
00000030: b741 0684 a094 f9bf 287c 3b4c 2855 ed3f
00000040: c31e fc68 f37d 0f40 5ccb 8e2c 94e1 0340
-3.552079099355294 -2.5044935895061626 5.738208677941196 0.9799131255501896 8.167358204949263 6.258564604660501 -1.5987858922199913 0.9166451920426697
3.936499424165818 2.4851459008290657

884 f8 [10, 1]
00000000: 8bba a40d c462 f0bf 63a5 79f9 d87a 0140
00000010: 163a 6afd 8707 f83f 3452 0fc5 9780 f4bf
00000020: 3439 4e76 b363 cc3f 2f68 5f02 9845 1ac0
00000030: 628d 6870 b7d5 0d40 558e e6c9 b6a3 1e40
00000040: 3d88 8a87 7bed e4bf 8420 5541 1443 0e40
-1.0241127522419073 2.184984158539622 1.5018386744519652 -1.2813947389269176 0.22179263378752412 -6.567962681840114 3.7293537885577033 7.659876970955868
-0.6539895674980084 3.7827534774879172

442 f8 [10, 1]
00000000: f074 81e3 efa0 f13f a5fb 1c58 96df 19c0
00000010: ec0c 4c61 43b7 e93f 1c3d 05ec 96f4 12c0
00000020: f6ec 9b42 51bf 1b40 cc93 fd88 25f9 06c0
00000030: b97c f92a f1e0 f8bf d8e9 e695 8b8f ffbf
00000040: 0c7f 8968 ddfd f8bf 765b d842 35ff 1ac0
1.101791275686363 -6.468346955079061 0.8036209965070191 -4.7388569715688185 6.9368334205312205 -2.871653623808447 -1.554917495602963 -1.972545228533468
-1.561978729579951 -6.7492266125253675

1337 f8 [10, 1]
00000000: c38c 00c7 e943 0ac0 76b6 7a13 0d79 e43f
00000010: f5c5 1fc6 0ae2 15c0 a47c 50a6 a722 06c0
00000020: 5eff c9ae 07c3 f53f b5ea 252e 8ebe 0c40
00000030: 0450 cdff 1f15 0b40 2f07 cb3d 2cfc 1440
00000040: 1518 5fb4 7a3a fb3f fc0b 4abb 8902 d6bf
-3.283160738662987 0.6397767429786672 -5.47074422425202 -2.766921328860535 1.3601147487351777 3.5930446248360917 3.3853149399310514 5.246262517468309
1.7017771764526561 -0.3439049080845391

157075 f8 [10, 1]
00000000: b147 a390 056d 01c0 bc89 c375 564d f5bf
00000010: de3b 5a9e 0c16 10c0 18c2 fbfd f43e f3bf
00000020: 4e4c 0f8b 6fa5 01c0 f5ad 4538 791e 2040
00000030: 70a7 733e 5d9d 2140 9587 47c4 e064 ed3f
00000040: 848c 3f13 9139 0540 1852 6c6a 0bae 0440
-2.1782332706288448 -1.3313812828206286 -4.021532511002958 -1.2028703614452123 -2.2057791580241775 8.059518583780099 8.807352019899298 0.9185642083723332
2.6531087402123052 2.584982711249051

31415 f8 [10, 1]
00000000: e7ae 73db 2d07 11c0 9b6e 9f35 9218 0840
00000010: 21cc b624 9360 2040 9ca6 0aae 0893 0e40
00000020: 4630 3603 92d8 16c0 0e31 0d44 2c37 e8bf
00000030: a006 eca0 aaa3 e6bf 8a18 968b afa6 f63f
00000040: 9215 d8b2 9d35 15c0 9cb7 f9e1 b5e3 1ec0
-4.257010868964904 3.0119976224212457 8.188622615160115 3.821793899250066 -5.711494493658455 -0.7567349747783128 -0.7074788229949327 1.4156947567549047
-5.302359384955155 -7.722373515001802

5200 f8 [10, 1]
00000000: 8ac2 879c 5def eabf ea7c 3ab4 3d60 1dc0
00000010: 6a6e 6ff8 6675 1240 b571 489c ee83 1ec0
00000020: 20f3 7524 f06a 0340 cfb7 5000 1e34 0fc0
00000030: a242 6b3d 6f65 0ec0 4a58 9e32 211f e6bf
00000040: 5e0e 2a80 9ad6 d2bf 295c ea77 5b43 1cc0
-0.8417194421036396 -7.3439853821466645 4.614650613595225 -7.628839914247171 2.4272158478255648 -3.9004478478081874 -3.7995285795553437 -0.6913000095980888
-0.29434835926097047 -7.065778611830901

62830 f8 [10, 1]
00000000: 9db0 9e7b 0ddb 0040 42b0 260d 4d8f 2840
00000010: 90ff 3578 3fe1 1140 68b0 dcb1 255b 0ec0
00000020: 0b18 a4bb 292b 04c0 fbd8 9523 4693 18c0
00000030: 4cdd ea21 753f f03f 0072 460d 2c13 0a40
00000040: a429 6367 1168 eebf 4628 13db 2337 eb3f
2.106959310322124 12.279884730313032 4.469968679710192 -3.7945054908250775 -2.5210756930782785 -6.143822246571513 1.0154925656223268 3.25936136599762
-0.9502036113056431 0.8504809645467126

2674 f8 [10, 1]
00000000: 8840 bf96 dee0 0340 7ea3 74d8 b3f5 17c0
00000010: f459 a576 bab3 0ac0 efd9 6036 6b09 0bc0
00000020: a4e9 593b 7cd7 e4bf 789b dccf 4be9 fb3f
00000030: b738 b8fb 3795 19c0 0b94 f5ff 317c fc3f
00000040: 1f87 cb60 f985 14c0 b28f 0909 4c9f 0140
2.484799554549742 -5.989943868750627 -3.337757994576572 -3.379599022703807 -0.6513043555453817 1.744457065544081 -6.395721371764174 1.7803211210641645
-5.130834114477493 2.20278174457959

18885 f8 [10, 1]
00000000: 0c68 2850 262c 1240 99f8 382e 5afd 01c0
00000010: f4a2 df1a f3a0 20c0 de5e 33c6 8038 f4bf
00000020: a4a6 5a18 7a6d 1bc0 9914 8a29 23ad 1ac0
00000030: f7a1 0b7e e8bd f1bf 7b0c 5005 c1bd 17c0
00000040: 6472 7a00 8b1a dabf 21cc 468b 4a46 0dc0
4.543114902940953 -2.2487071620117374 -8.314354743766195 -1.2637946836675193 -6.856911068470854 -6.669079445889246 -1.1088643001222616 -5.935306628237522
-0.4078700546904541 -3.659321868990006

3777 f8 [10, 1]
00000000: 159c 8796 3103 1040 b453 4df0 8b80 02c0
00000010: 5b88 8206 07a4 1140 6cdb 51fb 9c32 f1bf
00000020: a99c e447 1457 0640 6e26 1497 9edd ff3f
00000030: e0e6 b772 effe 0a40 2bb6 42d2 dce8 ff3f
00000040: 8f68 a86a b78e 0ac0 d837 6ed3 04ec e0bf
4.003118850733718 -2.312766911849815 4.410183049885826 -1.0748567406824021 2.792519151367362 1.99160632147905 3.3744801485416787 1.9943512166313535
-3.3196857769626784 -0.5288108949187018

7554 f8 [10, 1]
00000000: 0eb2 61c1 cac5 1340 33f8 7c9c c860 fcbf
00000010: ec7a 42c0 5792 c1bf d9bb c4aa 33a0 0640
00000020: 2b8a c054 ccf1 08c0 6435 e2d1 7e59 0d40
00000030: 37ad 00ee 0dd9 0cc0 ee8f fd87 c653 0440
00000040: ea2c 664d b292 17c0 94bd 8fc4 1ad0 0dc0
4.943156262958395 -1.7736288178271138 -0.1372785271423348 2.8282235471046815 -3.118065511823507 3.6686989209326146 -3.605983600040101 2.5409060119873095
-5.893258294450087 -3.7266135555616504

6685 f8 [10, 1]
00000000: e375 7085 4890 1ec0 aebf 13f1 f315 11c0
00000010: 76df 4f72 7331 fe3f 59b3 90ed c29d 00c0
00000020: ed70 81ae 887c ec3f 9ee9 38de cb4b 09c0
00000030: 0d51 834f 6e63 0d40 f8d3 ac6c 1f9d 1ac0
00000040: 31d1 a1ef 7f4d 1cc0 d34a 2215 79c1 0040
-7.640901646603626 -4.271438376264923 1.8870729890167843 -2.077031951883708 0.8902018936455797 -3.162009941207727 3.6735502445172927 -6.653440187500557
-7.075683349849258 2.0944692278947996

13000 f8 [10, 1]
00000000: b574 7cfc 2640 fabf 300d 1a76 4ef5 15c0
00000010: 1552 3a66 8616 f4bf 0952 64d5 ad88 08c0
00000020: 3fd0 7f76 70b6 0340 15d5 4168 80b0 1cc0
00000030: e534 404d c200 f93f 3292 9d97 e3e6 0f40
00000040: de95 9e1b 9b68 12c0 f664 304f 695f 1240
-1.6406621802082502 -5.489557118740137 -1.2554992669366858 -3.066737811206853 2.4640816934352467 -7.172364834802711 1.562685300599065 3.9877387852632404
-4.60215418963841 4.5931751607215485
