hw1/numpy/442solutions/w12.npz (npz, 3834 bytes, 15 tensors)

2210 f8 [8, 1]
000000 86 9a 28 23 04 83 cc 3f c5 8d 4a 56 1b 02 ea bf
       0.2227482959435358 -0.8127571759582045
000010 84 8d 64 88 b0 55 e4 bf 09 1e 46 71 bf 83 d4 3f
       -0.6354601539537019 0.32054124891189467
000020 f8 fe 2c 5d 04 8a d9 3f 8b 23 eb 58 9b 63 ac 3f
       0.39904889201351024 0.05544743977004093
000030 14 0f 51 0c c3 04 d8 bf ba e2 3c d8 10 ec dc 3f
       -0.37529064371868626 0.45190831295944245

2600 f8 [9, 1]
000000 80 58 23 e4 c5 a2 92 bf 62 ff 5e 8f 9c a1 c9 bf
       -0.01819905476516981 -0.20024449348965861
000010 fe 1f 5f c7 09 fe c8 bf 5c a9 f9 ed 92 7a d7 bf
       -0.19525263056698344 -0.3668563198067625
000020 3b b4 fd b1 c0 46 cc bf c1 36 70 b5 e6 27 f1 3f
       -0.22090920153587654 1.0722415053782444
000030 bb 6d 6e c1 ce fa e6 bf bd 4a 29 0e ca b3 e0 bf
       -0.7181161668735777 -0.5219469334209276
000040 74 14 6e c1 37 87 f0 3f
       1.0330121570453032

884 f8 [9, 1]
000000 ea 14 33 f6 12 00 bc bf 18 29 0e 55 57 84 95 3f
       -0.10937613020640283 0.021012653890957272
000010 f5 10 17 09 78 90 d8 3f b5 e1 30 e7 eb 1b e1 3f
       0.38381768119530985 0.5346583857963682
000020 f0 7c ae ec 70 6a b7 bf 84 94 f3 4f 9e ca cf bf
       -0.09146791246756769 -0.2483709230793104
000030 75 d0 8a d9 da 90 ce bf 20 be f9 4e ef 44 d0 3f
       -0.23879562017612313 0.25420744621712466
000040 bb 5c e1 ec b2 2d dd bf
       -0.4559142411503207

442 f8 [7, 1]
000000 a6 5b ec dc 73 c3 d2 bf 3e 59 b7 51 aa e8 cc bf
       -0.2931794793561785 -0.22585038175629707
000010 ea 0c b0 91 70 6e dc bf a7 b6 55 57 7c 51 c0 3f
       -0.4442407057506005 0.12748674644847321
000020 e3 48 6e ee 2b 60 e3 3f ee f3 17 1f 0e ba c8 3f
       0.6054896981097752 0.1931779529403736
000030 7b 80 0e 4a e6 1e d1 3f
       0.2675109599313214

1337 f8 [12, 1]
000000 97 30 27 0c 22 a3 ce 3f b8 31 bb 02 93 2a d0 bf
       0.239353424009441 -0.25259852663728166
000010 a6 ae 24 ab f2 77 da 3f 8c 62 e4 62 3c cf cc bf
       0.413571040279502 -0.225074337279484
000020 e6 d6 f3 b5 d5 8b b4 3f 14 10 ce 10 4d e4 d1 bf
       0.08025870983314184 -0.27955938950640413
000030 04 d8 b4 36 4e 52 ab bf 93 8f 39 2b d2 bd ea bf
       -0.05336231630137436 -0.8356715053782743
000040 5b 75 75 79 13 28 f1 3f ae 8d fc 26 55 4e d2 3f
       1.0722841972813828 0.2860310440757655
000050 67 81 1a c6 96 d9 e2 bf 5d 9f 57 f4 82 0f e1 3f
       -0.5890611523828228 0.5331434986410205

157075 f8 [13, 1]
000000 c2 c1 aa d3 9d a9 cb 3f f8 e4 78 db 49 5b cb bf
       0.21611378512672103 -0.21372340408723978
000010 f1 44 51 c5 ae 78 cc bf 85 2c 8c 57 1a 46 c3 bf
       -0.22243294367448344 -0.15057687067778516
000020 a5 7a 06 15 a6 00 d5 3f f0 10 3e 11 55 1a e5 3f
       0.3281645970654757 0.6594643914000056
000030 12 aa af 8e 22 a1 8c bf 48 3f 82 eb 47 5b a3 bf
       -0.013979215602337756 -0.03780579328406347
000040 19 e9 c4 9d 05 e7 ed 3f a5 43 f0 f7 75 f6 b3 3f
       0.9344509202412922 0.07797944358050175
000050 24 cf b0 55 4f 3c ed bf 7b be 8a bc b2 6d c3 bf
       -0.9136120484967916 -0.15178522306586104
000060 cc e0 db 11 98 6b e2 bf
       -0.5756340359503382

31415 f8 [12, 1]
000000 b4 38 81 93 18 01 e2 bf a5 0f b9 44 58 76 d4 3f
       -0.5626337891533439 0.3197231932756444
000010 c8 70 c4 e9 2a 77 b2 bf 36 43 f2 e8 67 52 d0 3f
       -0.07213085372171968 0.25502965687433077
000020 ea a2 84 8e 8a 57 dd 3f ad 1b 42 01 92 bd dd 3f
       0.45846809308799996 0.4646954548156213
000030 dc 17 bf 1a 6c 25 a2 bf 94 f1 0a b3 3f e4 e0 bf
       -0.035441759362171615 -0.5278624054840741
000040 9e 3d fe aa 35 85 cd bf fb ad b2 a2 cc 83 e4 3f
       -0.23062773560785116 0.6410887887663529
000050 3f 27 d3 a0 48 af d3 bf 2e a9 b5 26 a8 01 ef bf
       -0.3075734682612285 -0.9689522510573505

5200 f8 [11, 1]
000000 d9 d4 b3 d3 6f c8 e8 3f 30 3e de 81 11 f2 d6 bf
       0.7744673857511329 -0.3585246818774719
000010 1d 08 af 5e 63 b2 dc 3f 79 7e b1 5d a2 bc d0 bf
       0.44838794943291466 -0.2615133204435334
000020 6f 0b a5 04 40 5c 9f 3f 29 ab 8d f2 84 2b dd bf
       0.03062534359311136 -0.4557812088666418
000030 18 e4 87 c5 0f d0 cc 3f ba c0 03 e8 c6 f7 e8 bf
       0.22509953637180113 -0.7802462131058043
000040 52 c1 66 08 6d 46 c2 3f b0 cc d2 98 54 80 c2 3f
       0.14277422819351188 0.1445413347442801
000050 99 c1 04 59 34 99 c4 3f
       0.16092542978868776

62830 f8 [13, 1]
000000 11 e5 13 01 7f 65 f2 bf 57 b7 f7 c8 18 19 b8 3f
       -1.1497793237779812 0.09413294702946239
000010 d6 aa 5d f2 11 ec d1 bf 1c f2 ed 4c 88 73 e1 bf
       -0.28003357571166754 -0.5453530790833301
000020 4b e2 ec 8c 9d b8 65 bf 18 fb 83 dc 9a 6c de 3f
       -0.0026515080602645172 0.47537871870729154
000030 69 68 c3 ae 71 84 f0 3f 9d cf 9c c7 c8 50 b6 bf
       1.0323349787418243 -0.08717017052987193
000040 90 b0 56 f5 71 64 b1 3f 9b b8 a1 e5 11 b3 c8 3f
       0.06793892135346113 0.19296477997290115
000050 9c 59 ef b2 cd a8 cb 3f 60 be 4a 4b d5 8e da bf
       0.21608897435244223 -0.41496784546595755
000060 c5 f5 d0 b4 9b 77 e4 3f
       0.6396006137435327

2674 f8 [13, 1]
000000 6c ca 94 e5 1a 42 d4 bf e4 5f 4d e2 cf db b2 3f
       -0.3165347330097237 0.07366656565625324
000010 e9 31 fb 96 d4 69 d6 3f e0 55 a0 9d b1 ff f4 bf
       0.35020937675724767 -1.3124252469327686
000020 bb 39 33 8a 36 74 f2 bf 47 6c 24 90 b0 66 de 3f
       -1.1533723257485764 0.47501768185037857
000030 14 54 b2 31 fc 6e 9a 3f cc 14 72 21 51 a2 ef 3f
       0.025813999684562175 0.9885640767321546
000040 d8 7d 48 a4 f7 2e e9 bf fa 2b 5d be 5e 74 e1 3f
       -0.7869833191543263 0.5454553335233634
000050 bc 3e 8f 04 66 c4 d8 bf 94 2d ee 02 3b b9 c2 3f
       -0.38698721356648114 0.1462777866657744
000060 e2 c4 70 c7 8c c6 ef 3f
       0.9929870505640361

18885 f8 [11, 1]
000000 0b ba dd fc f3 5d c3 3f 61 96 95 5e 69 d2 a8 bf
       0.15130472037294881 -0.04848031310647794
000010 17 34 bc a2 95 61 db 3f 76 a4 d1 31 a6 7e d3 bf
       0.4278310860834735 -0.3046050535691117
000020 84 4c c7 ea 5f 58 e8 3f c1 e1 82 45 0a a0 e0 bf
       0.7607879243390845 -0.5195361478463881
000030 62 21 e3 3f d4 f7 d9 3f d9 8a 7c 13 47 8a f0 bf
       0.4057512878321373 -1.0337591897193106
000040 3e 9b cc b6 d5 08 dd bf 3b 64 0c cb e2 ba e1 3f
       -0.453664234652411 0.5540632215298794
000050 12 60 1c cd ee 21 b5 bf
       -0.08254902370060815

3777 f8 [5, 1]
000000 bb ca 48 d9 ba 72 e7 3f 04 e8 8e c7 f6 a9 e2 bf
       0.7327551120600541 -0.5832475564595829
000010 86 45 0d b4 3f b1 90 3f e6 3f 99 42 a5 b8 cc bf
       0.01630115066956741 -0.22438493492018025
000020 6e 38 ff 52 16 30 d3 bf
       -0.29981001000567786

7554 f8 [12, 1]
000000 7e 54 b5 20 8c 09 d3 bf 5d c7 20 b0 aa 06 db bf
       -0.2974577254693215 -0.42228190612796884
000010 ab f2 55 87 bb 9e e8 bf 8b 35 e3 f9 39 b9 e9 3f
       -0.7693765300060326 0.8038606529823239
000020 33 7e 74 6f 4b 7a ee 3f ce 19 d3 cf c5 47 d3 bf
       0.9524285485130747 -0.3012556581055862
000030 8c 3c 62 63 c7 53 ce bf 20 6f 3d 6c 3a 54 d0 3f
       -0.23693172791215422 0.25514088220892184
000040 c9 b0 f7 a2 bd b3 e2 bf b5 68 d6 3f 96 f2 b1 bf
       -0.5844410117111006 -0.07010783251317572
000050 25 cc 35 72 fa dd cd bf 1f 86 0f a8 e9 7c eb 3f
       -0.23333674027125642 0.8589981348451977

6685 f8 [12, 1]
000000 7a 91 fc 83 57 c5 e1 bf f7 bf 94 ab cb 12 c9 bf
       -0.5553395822394542 -0.19588609579068336
000010 30 ed 63 76 73 8f c4 bf e8 d2 6e 32 02 ec de 3f
       -0.1606277778699705 0.48315482068146176
000020 f4 1e 40 a8 23 cb c5 3f f8 13 eb a4 a1 13 f3 3f
       0.1702618190322408 1.1922928278083855
000030 b5 ee 4a 5f 27 a7 f4 bf 3c e7 38 1f fd 7a da 3f
       -1.2908090326663288 0.41375663804102536
000040 76 35 3a 0d 34 a0 e2 bf 06 ba 31 e0 ee 3f bd 3f
       -0.5820560701701385 0.11425679181568435
000050 d2 ac c7 f9 38 21 a1 3f e0 4f a1 fe 68 e5 ba 3f
       0.03345659302780181 0.10506302086406505

13000 f8 [6, 1]
000000 b2 07 5d 7b 55 a7 f4 bf 24 19 69 94 68 56 b0 bf
       -1.2908530062563668 -0.06381848929695316
000010 5c 19 16 32 99 8f be 3f 8e 6a f1 98 df 8c de 3f
       0.1193786380082193 0.4773482316574381
000020 38 f7 27 98 53 c2 ba 3f 94 59 0c a5 08 6c ba bf
       0.10452768769024778 -0.10321096448419659
