hw1/numpy/442solutions/w15.npz (npz, 6282 bytes, 15 tensors)

2210 f8 [24]
0.5052046227347913 -0.4451269790419344 -1.1481825991800174 0.3332659380300254 0.3433603271158662 -0.07151678637908856 1.295553762921643 -0.4513198774004321
0.2367706807537698 -0.8855856404834416 0.1409703621276865 1.1886823585780963 1.265532558147822 -0.8979586062153823 0.1580270904370924 1.4143989317336172
-0.6537899896447544 -1.2803145148366735 -0.35829549515238385 0.4892229204715834 0.8625629664242603 0.7499124370842957 1.1099579210218107 -0.10469875873405554
00000000: e4e2 8de2 a22a e03f 495a 63de f57c dcbf
00000010: fe07 95b7 f45e f2bf 156c 2da8 3a54 d53f
00000020: 6b37 ed97 9df9 d53f eafa 9c92 ec4e b2bf
00000030: c354 1f95 96ba f43f b00d 5ec4 6ce2 dcbf
00000040: c39a 3e6d 804e ce3f 03e0 75b2 b756 ecbf
00000050: a697 851b 510b c23f 15cd f6ca d704 f33f
00000060: 324a 5411 9f3f f43f fb6a dbaf 13bc ecbf
00000070: a898 a750 3b3a c43f 0ab1 34c6 60a1 f63f
00000080: a93e fffb d8eb e4bf f814 9d12 2b7c f4bf
00000090: 8df3 7e3a 50ee d6bf 8342 f8a6 6d4f df3f
000000a0: e10d 71a6 1d9a eb3f ad80 045e 48ff e73f
000000b0: e598 ab3c 63c2 f13f e0ce b1b0 89cd babf

2600 f8 [27]
0.07775798526662225 0.6440822769582457 1.8363544622627361 -1.0584321868366635 0.2839007439349854 1.5516689982473992 1.1385923148764951 0.49339657308554635
0.8470061939844634 -0.01069627460852429 -0.17878085725229748 0.21453981145329978 2.097601012240577 0.020629358788266074 0.8125569877768533 1.0780291621086864
2.218351239396587 -1.2392924406967927 -2.2808306180127946 1.5000826991109304 -1.3743625859859965 0.6707171254253101 0.5309706773734703 0.8032332825644417
-0.7047227812762485 -0.48898574373502823 -0.1477394693712995
00000000: 0816 b983 f2e7 b33f 1001 6f6f 529c e43f
00000010: 8e83 7437 b561 fd3f a9f4 b796 56ef f0bf
00000020: 7bb1 a006 6e2b d23f da08 1bdf a2d3 f83f
00000030: 96f1 3d93 ac37 f23f e918 5738 cf93 df3f
00000040: c786 d5bb ac1a eb3f 3fa9 0fad ede7 85bf
00000050: c654 8687 4ae2 c6bf 0be3 f060 0a76 cb3f
00000060: c709 1d0a e3c7 0040 d70b 55d5 dc1f 953f
00000070: 5269 1483 7700 ea3f e841 b681 9b3f f13f
00000080: cafe 41ef 2ebf 0140 5c90 6f4f 24d4 f3bf
00000090: b4a4 801f 243f 02c0 32a1 5fb7 5600 f83f
000000a0: 557e 7a9f 63fd f5bf ea33 d2c2 8376 e53f
000000b0: 5987 ce37 b6fd e03f 4089 f548 16b4 e93f
000000c0: 197c 4aca 168d e6bf f856 63dc 8a4b dfbf
000000d0: 9a99 a37e 20e9 c2bf

884 f8 [27]
-0.1414828662445112 1.3324721406169597 2.0536308691429888 0.9334296932479673 -0.0520564362471116 0.7019046321295759 1.2646415079240647 -1.0309678289574773
0.3039520455052522 -1.002064272800561 -1.0848819486120647 -1.7590577417045437 -1.4069880067485696 -1.3975416999031973 -0.8882715007253278 -0.27155289872898314
0.3592731015949682 1.197677973141906 1.1865069946868834 2.2836363514832163 -0.4482774925596858 -0.7591539108457825 0.6602741864744855 -1.5440235765366328
1.0039861082743429 0.8473523308938802 -1.2454160304393955
00000000: 5375 bb4d 1c1c c2bf cb7e ac4e ce51 f53f
00000010: 9833 6805 d66d 0040 ccb0 b3f2 a7de ed3f
00000020: f98e 7426 24a7 aabf be09 fdb3 0076 e63f
00000030: f02a dbbb f83b f43f 989b 491f d87e f0bf
00000040: c7d4 bf47 f373 d33f e6b1 028c 7408 f0bf
00000050: 00f4 942c ad5b f1bf 9958 06bb 1925 fcbf
00000060: df96 2ddb 0583 f6bf 7116 7eaf 545c f6bf
00000070: 23b1 b25a b86c ecbf ea32 cb68 1f61 d1bf
00000080: 35b4 6b9b 54fe d63f 7b8b dc60 b029 f33f
00000090: 8f7c 2ac2 eefb f23f 0e9e ac22 e344 0240
000000a0: 35e9 8414 94b0 dcbf 02d2 7624 fd4a e8bf
000000b0: 25a1 a954 f720 e53f 08a5 d710 52b4 f8bf
000000c0: 6dd3 cabc 5310 f03f 601d aca2 821d eb3f
000000d0: e86b 0a5c 39ed f3bf

442 f8 [21]
0.36312871125831375 -0.13981868511687 3.420484727484616 0.21843929326355577 -0.435654776030242 -0.5510015874496477 -0.20737050621668088 -1.2830445548117162
1.0478617336296838 -0.6999063807248507 -0.12483820396435291 1.2591272900431163 -0.9955133066453462 0.9270446105617349 -2.6933862525762016 -1.132729864155488
-0.3504507256478605 0.03885914445037367 -0.454500664366114 1.2326157619794975 -1.0590745108540045
00000000: 19f5 c534 803d d73f c42c f923 94e5 c1bf
00000010: 771c c818 275d 0b40 c239 5d9a d1f5 cb3f
00000020: 9b59 d991 c4e1 dbbf 827d c414 cea1 e1bf
00000030: 9984 2de3 1d8b cabf 9da2 23ba 5987 f4bf
00000040: aeb5 4aaa 0ac4 f03f dc32 ef10 a265 e6bf
00000050: 5c7a 5183 65f5 bfbf d9c7 43a8 6225 f43f
00000060: 5fc9 d8b8 3edb efbf 7076 8975 59aa ed3f
00000070: 7b7c 7217 0e8c 05c0 6801 9c59 a91f f2bf
00000080: 0217 61e1 c86d d6bf e439 2185 58e5 a33f
00000090: 689d 5df4 8916 ddbf e9c6 234e cbb8 f33f
000000a0: 8552 421d f8f1 f0bf

1337 f8 [36]
1.1722424304916683 0.5019480205720707 0.883051360258313 0.45188853638832577 0.038682413000721165 -0.6628483332754627 1.1390023206276723 0.8147819335363161
-1.6993176671655417 0.28170012291238544 0.5035639071364234 0.7242502953589318 -0.42471834436513656 0.7801103040168637 -1.500794824402126 0.736483524533959
-0.3518714152150765 0.6361289032412821 -1.177702832826571 0.029238365498016835 0.6845428444366101 0.3298667091662012 1.5564822918230197 0.22366945232091032
2.010085327569126 -0.4777457021471663 1.4252996674328273 0.26852972908637684 -0.3178354312051308 1.7474539374102218 0.7529433466001694 0.3361848414577411
-2.5877826480087096 -0.5062637840803924 0.1543512232280797 -0.35679802451567527
00000000: d21f 5f47 81c1 f23f 6fc4 944b f50f e03f
00000010: b8ed 1fed f441 ec3f 1b69 4ee5 bdeb dc3f
00000020: ef73 8965 2ece a33f 000a 34b5 0d36 e5bf
00000030: 939f 527f 5a39 f23f bb1f bd8f b112 ea3f
00000040: 32db dfb8 6730 fbbf 2806 ccf3 5f07 d23f
00000050: f719 130e 321d e03f 22eb 95f4 0e2d e73f
00000060: 4ccf c3d9 952e dbbf 2fcd 60e2 a9f6 e83f
00000070: d802 0d6f 4103 f8bf 3f51 7de5 4591 e73f
00000080: 4ebe 2faf 0f85 d6bf e1c5 6e00 2b5b e43f
00000090: cb58 f6ec ded7 f2bf bfef 687e a9f0 9d3f
000000a0: 211d 3265 c6e7 e53f 4e1c fa41 891c d53f
000000b0: 8fed c2f9 59e7 f83f b590 6a5b 33a1 cc3f
000000c0: 79a1 c09d a714 0040 68b4 a1b5 6293 debf
000000d0: 8dfa 2906 07ce f63f ac80 1b51 972f d13f
000000e0: 604f a26b 6a57 d4bf e517 8742 92f5 fb3f
000000f0: c26e 2ca5 1c18 e83f 5034 de6c 0d84 d53f
00000100: 5ad4 9263 c7b3 04c0 a1c8 781b 5033 e0bf
00000110: 805c eee7 c7c1 c33f 719f a461 c7d5 d6bf

157075 f8 [39]
-0.19622607871419814 0.16740533349731085 1.6745312806519748 0.8538780813685929 0.6556008567577667 0.40030610712918524 -1.2695985492662514 1.0634916720231022
1.5705312170134476 1.1270079821846721 1.3071257922255102 -0.0495340663143285 0.8585177741641956 1.6163653053218587 -0.03527808388107187 1.491642004451788
0.6950086301482146 -0.08532562018114798 1.0710114992951827 -0.16321067609296136 1.009905137427443 0.07867384790132083 0.6918084722646841 0.05040194696430549
1.3902013324466376 -1.3509149627012094 1.624198918822466 -0.34955067502002046 -0.7667771464852448 -0.013784501484997828 -0.8835278010728098 1.010680494277297
0.26135440968622836 1.2522331546838186 -0.14445775090537652 -0.11081355739509069 -0.13607193739717513 0.9493491958953977 -0.08684497337079344
00000000: 2393 59a7 ef1d c9bf 9601 46b8 896d c53f
00000010: b977 e84f e1ca fa3f 8afa 4720 f852 eb3f
00000020: 5022 e0a5 aefa e43f 3292 a081 9d9e d93f
00000030: 8c5c 8291 4650 f4bf 7585 eed7 0f04 f13f
00000040: a6b7 6657 e520 f93f a006 9d85 3908 f23f
00000050: d4dd 15bc fce9 f43f 6943 b775 875c a9bf
00000060: e63c 6244 fa78 eb3f 69f1 cbdd a1dc f93f
00000070: 8cca 1111 f80f a2bf 745d a701 c4dd f73f
00000080: 3494 1dbd 823d e63f e85e 305c e6d7 b5bf
00000090: c5cd 31f4 dc22 f13f 5cb2 1662 16e4 c4bf
000000a0: 1603 154a 9228 f03f f961 c923 f823 b43f
000000b0: 0f1f 6f85 4b23 e63f 379b bbb3 48ce a93f
000000c0: 446c 9bc0 433e f63f faa8 0702 599d f5bf
000000d0: 24a8 6801 b8fc f93f 965d 60cb 095f d6bf
000000e0: b12d ef39 7089 e8bf 22ce 8e78 0c3b 8cbf
000000f0: 48dd 5618 dc45 ecbf 8704 5a4f bf2b f03f
00000100: 9822 91d8 07ba d03f b257 e5a1 2509 f43f
00000110: 4d6a e571 977d c2bf 1820 f7fc 465e bcbf
00000120: db19 8324 ce6a c1bf 2259 9b90 1161 ee3f
00000130: a015 73e0 783b b6bf

31415 f8 [36]
-0.16432209102398893 -0.36320701900345265 1.8198768866356654 0.668531261067352 0.24031681316027276 2.0866632318994727 0.029460970728563414 1.204964595473505
-0.2389253804533002 1.3177109680569283 0.18620563672177903 -1.559572291258226 0.9409053556352146 0.3377095401831296 -1.8808669808053808 1.1526336669234956
-1.1370307601112264 0.9147251736792811 0.28547556475079583 1.1166653644355884 -0.75594826520051 -0.4207518860720691 0.9845148130871028 2.6721058184468602
0.6379702109303783 1.7341145145562973 0.3645481780167148 -0.9077664806809552 0.13409264121987904 1.3223884728967423 0.7818427062939266 -0.764715583640806
-0.8474091392072932 -0.564740850135972 0.9732698855230498 -1.0633752344132512
00000000: caab 7a9b 8108 c5bf e809 13a7 c83e d7bf
00000010: 318b ed39 371e fd3f cc69 d4ab 9b64 e53f
00000020: 6ce5 998a b3c2 ce3f f230 167e 7cb1 0040
00000030: d27e 2647 042b 9e3f 5e58 a6f4 8847 f33f
00000040: a69a 9d5b 1b95 cebf fe28 9618 5815 f53f
00000050: d083 0618 96d5 c73f d93a 2b13 02f4 f8bf
00000060: 31b4 628c e51b ee3f 308f a879 089d d53f
00000070: 47f7 aaf9 0718 febf 8f47 fbff 2f71 f23f
00000080: 6f94 932a 4731 f2bf 4df9 38ba 6d45 ed3f
00000090: e85a 9a4d 3b45 d23f 773a 4d80 dcdd f13f
000000a0: cb21 906a ba30 e8bf 0f3b 9a51 99ed dabf
000000b0: 835f 9435 2581 ef3f d371 ed03 7960 0540
000000c0: 1195 f880 406a e43f 859c 78dc eebe fb3f
000000d0: b87b 99e1 c154 d73f 41c0 5d4a 6c0c edbf
000000e0: e739 569a f229 c13f a82e bbd0 8028 f53f
000000f0: e8c0 c4fe da04 e93f 7352 cfd0 8c78 e8bf
00000100: 3d42 67c5 f91d ebbf 5993 4167 5b12 e2bf
00000110: e919 10e3 0625 ef3f 64e6 f2bf 9503 f1bf

5200 f8 [33]
-0.8245490640419929 -0.14128068240473932 0.5998295688186895 -0.974501155305585 -0.5591343548331422 -1.2566325691548925 0.40752080462828333 1.5410654202436345
0.42560805591089934 0.2834433068013664 0.4765033527216188 -0.2525828852353288 0.0244486126690962 1.3317477760550156 0.11177980252880908 1.3915154820705342
-0.8499991605424101 -0.5890208170679325 0.6042239119700761 0.5495130408139779 0.40888052755676463 0.7004068652632873 -0.6966760142146438 0.9822801326297927
-0.7086449829377993 0.6545753954050734 -1.565528980505655 1.2081270200413334 1.1008270963367037 0.8364393906311449 1.034959808705989 -1.2077592526693448
-0.9491927690961228
00000000: a53f 00b8 b462 eabf cb11 3e43 7c15 c2bf
00000010: 6f00 a8c7 cd31 e33f 5d74 fe0b 1d2f efbf
00000020: 4c82 02bb 6de4 e1bf 53bd b9c0 2a1b f4bf
00000030: 765b 1424 d214 da3f 2516 cf36 34a8 f83f
00000040: fe4a 4392 293d db3f 7cd8 3e65 ef23 d23f
00000050: caea 17eb 077f de3f 1e5d e767 512a d0bf
00000060: cfa6 629f 0e09 993f 17d5 8ac1 d64e f53f
00000070: 43ee 36e4 999d bc3f 0eee f5bc a543 f63f
00000080: 0107 8570 3133 ebbf fc09 3f2f 42d9 e2bf
00000090: d4ec ab62 cd55 e33f 86b0 605f 9c95 e13f
000000a0: 44f6 743b 192b da3f ec63 86a8 bb69 e63f
000000b0: 70b4 1e7f 2b4b e6bf e0f9 a4be d66e ef3f
000000c0: 8927 463e 38ad e6bf 6ffe 8019 48f2 e43f
000000d0: 6464 c31d 680c f9bf 09dd 87ff 7c54 f33f
000000e0: 8c11 95df fc9c f13f 1a1a 7b8a 1cc4 ea3f
000000f0: f410 3104 328f f03f f27f ba5d fb52 f3bf
00000100: c8c2 9b83 c95f eebf

62830 f8 [39]
1.1773719513566374 0.8144628774628951 0.28012411245561775 -0.259123329438148 -0.15896856567591242 0.3477712687445646 1.8654007398533061 1.4374312880580111
0.4253445746172443 -1.8355023000314077 0.34199918755015873 0.02995249134854915 0.745065991888771 -0.12120301754008336 -1.4592895116881226 -1.6449871469065966
-0.42565626076379875 -1.1077793278067558 -1.8358525891991169 0.40439163650512744 0.5742558340047629 0.29873078148084736 -1.8061078386844536 -0.29619073922279915
-0.560362917236645 0.3374576101373427 0.28068111574339355 -1.76081930116456 -1.6626722545154173 1.1131782676456965 0.6058894967354131 -1.1687383394246902
-0.5028273040182808 0.04022337160205929 -0.3092222388040661 -0.6086111680913394 -2.269668090649604 1.0978521108168648 -0.029282517663044634
00000000: 12df a4f8 83d6 f23f 494b d073 1410 ea3f
00000010: 8c58 74af 8ded d13f 9651 6404 7a95 d0bf
00000020: ebc4 55fb 1459 c4bf e7c3 6f6c e241 d63f
00000030: 9daa 3972 aed8 fd3f 0f4d 47f3 b7ff f63f
00000040: 2ec6 6073 d838 db3f 00e2 e5a8 375e fdbf
00000050: 0d56 728f 50e3 d53f fd5b 1aab ddab 9e3f
00000060: 34c5 90a2 94d7 e73f 32dc 8234 2907 bfbf
00000070: 6e8a 81f5 3f59 f7bf ecdd e40a de51 fabf
00000080: cb5c d4c1 f33d dbbf 8cd6 01d1 76b9 f1bf
00000090: af31 eef6 a65f fdbf 3430 6475 8de1 d93f
000000a0: 1fce 52c5 4d60 e23f 6533 31b6 671e d33f
000000b0: fd2e 4355 d1e5 fcbf 58c2 9500 caf4 d2bf
000000c0: 7d85 6d36 7eee e1bf 8be0 d4cd e798 d53f
000000d0: 2940 2eed adf6 d13f 82ad 0adc 502c fcbf
000000e0: d0c3 d138 4e9a fabf cd7f e203 94cf f13f
000000f0: f0fd ae5e 7263 e33f f790 16f9 26b3 f2bf
00000100: 716b 4949 2917 e0bf 67a3 2163 2898 a43f
00000110: daff b612 4cca d3bf 5dd8 dd20 be79 e3bf
00000120: 23eb 70be 4728 02c0 19d9 fc5f cd90 f13f
00000130: 724b d47e 3cfc 9dbf

2674 f8 [39]
-1.1320729122830258 -0.3517132813834121 -0.37441846310743315 0.7255664642307891 0.3317203793415446 -0.5044200042516368 1.4608165404118194 -0.9346032858088432
-0.8925694032612298 -0.803208570500004 0.08237245958747207 -0.6618262011655162 3.006446043238444 -1.0151588586943434 -0.4704700527708647 -0.3161810161767912
0.025072187964066846 0.7388995901192723 0.19658593363187565 1.1953996265597175 1.2485021247429247 1.5387570800210404 3.4459616438014335 0.4449612539135847
0.6157155662657868 -1.573611230597124 0.8976794253769457 2.194076925951245 1.0891926785984247 -0.32326307200104853 0.6204834600926529 1.4750455012750714
-0.13003311284509408 -1.521010427244029 -0.6974088473082409 -1.0817380085393913 0.09340223550944539 0.2818843394146677 0.35593755433268043
00000000: d316 6f7c f81c f2bf 1514 476c 7882 d6bf
00000010: 1729 84db 78f6 d7bf 4c42 5e29 d737 e73f
00000020: cf12 2c1d e83a d53f cfaf b66b 3524 e0bf
00000030: df64 282a 815f f73f 570f 6926 45e8 edbf
00000040: d959 8db5 ed8f ecbf fe42 c575 e2b3 e9bf
00000050: 27ef 048c 5c16 b53f b389 3424 ae2d e5bf
00000060: 872e 4795 330d 0840 e763 2537 173e f0bf
00000070: 0f7d 996c 2e1c debf 761a 064d 4f3c d4bf
00000080: 9f1b 610d 86ac 993f eee1 d2c0 10a5 e73f
00000090: 62b9 e655 ba29 c93f f697 db5b 5b20 f33f
000000a0: 341e 2c5d ddf9 f33f 76dc 72be bf9e f83f
000000b0: 332e 9b56 5491 0b40 a3f1 62c4 3e7a dc3f
000000c0: 57fd 9721 f1b3 e33f 0387 40f8 822d f9bf
000000d0: 5b27 c933 cab9 ec3f 53f3 0e34 788d 0140
000000e0: 4af7 594d 556d f13f 90ef 8f98 57b0 d4bf
000000f0: d7d1 1921 00db e33f ea69 c14f c999 f73f
00000100: 7b8b 88cf eca4 c0bf a035 9e07 0f56 f8bf
00000110: 9228 e45b 2c51 e6bf 0945 9883 cc4e f1bf
00000120: 59e8 e27a 35e9 b73f 8f98 c29c 640a d23f
00000130: c5bb d14e aec7 d63f

18885 f8 [33]
0.8120956395016881 0.055217659007863205 -1.0220601549280037 -0.09349761492728838 -1.0086843641639978 1.0195534266603243 -0.2818263477146111 1.801954478899053
0.2463986611309926 -1.1741585723155674 -0.3087496264744708 -0.471740351188625 0.762545017140058 0.4184635000141573 0.10867123843451021 0.3099046868164138
0.3965077240609748 -1.4618391262956856 2.708251608064165 -1.5751264454248135 -1.196557262872446 -0.3720737471619833 0.8445912817705451 -0.2387744116012382
-0.04037549753565739 -0.8849611122660755 0.2656155972905392 -0.18687925799149058 0.030985803810572806 1.4556799816788872 0.7906211702734935 -1.7883481002249126
-0.5606837016263412
00000000: 5e49 9cfe affc e93f 7b6e 332f 7d45 ac3f
00000010: 155e bfbf 5b5a f0bf 61e0 5dae 75ef b7bf
00000020: 8222 4137 9223 f0bf 457e 0041 1750 f03f
00000030: da76 a560 7109 d2bf d308 3c38 ced4 fc3f
00000040: 7bfb aac7 fd89 cf3f 579d c67f 5ac9 f2bf
00000050: 5a0b 17cb 8dc2 d3bf bac1 2371 fe30 debf
00000060: 9304 cbce c466 e83f 215a c821 1bc8 da3f
00000070: e88f 17d7 e0d1 bb3f 4e3b b077 7ad5 d33f
00000080: 8602 ddee 6160 d93f 3d40 776c b163 f7bf
00000090: cccc afd1 7faa 0540 fca0 a2c9 b733 f9bf
000000a0: 4041 7d3a 1925 f3bf 71b2 f067 0ed0 d7bf
000000b0: 691e b64b e406 eb3f 8e77 79f0 2890 cebf
000000c0: a064 f3e2 18ac a4bf 3b44 6df7 9951 ecbf
000000d0: 60e7 ea8f d8ff d03f bee5 afd6 a8eb c7bf
000000e0: bfd7 0618 beba 9f3f 0f0b ac17 774a f73f
000000f0: 6632 bbc4 c44c e93f 9346 c5e5 129d fcbf
00000100: d954 3cf2 1ef1 e1bf

3777 f8 [15]
-1.396826618046977 0.5053202385146016 0.30004757114197306 1.1185007281948396 0.4784860771562987 0.6669881265090727 -0.4008026056404554 0.7419449791745828
0.7608153118720794 0.4868396215960167 0.21679757831504576 -0.3755645202270168 0.8167315393649206 0.8294175986273739 -1.0368388620125961
00000000: d41a 2bde 6659 f6bf 14ab 4d59 952b e03f
00000010: f122 53ba fa33 d33f 6462 0205 61e5 f13f
00000020: 9591 3e11 849f de3f 2aa8 c57b f757 e53f
00000030: 5b26 d8f8 bfa6 d9bf 3b8f 9f65 03be e73f
00000040: 012c 595a 9958 e83f d8b8 495f 6128 df3f
00000050: 1089 5be6 05c0 cb3f 106e fac4 3f09 d8bf
00000060: e8e3 652e aa22 ea3f 099b 9ac6 968a ea3f
00000070: 290e b958 e496 f0bf

7554 f8 [36]
1.215962412201731 -0.7018457697972533 1.9359322090067506 0.5447997672857937 -1.228769733968886 0.12573868823533427 0.5091612781019629 -2.5448630853179557
-0.3836283610859404 2.177227888678355 0.6887666786783008 -0.442341596694609 0.5578258331054049 -0.47731354895802885 0.791344117844372 0.202190772872358
-1.3354317225063592 1.3972743815961883 0.006243120984296419 0.6525812400729337 1.052441805678117 0.35448989037221273 0.06599765579079728 2.2051030631578734
-2.1930352683800454 1.1343040614561541 -1.0064015610031045 2.037508181408295 0.24267707053375956 0.7362626119864957 -0.4823091750038192 0.38212347869076363
-2.263670741478936 0.20938233302294548 -0.9644526208875108 1.6125958121558994
00000000: b525 9900 9574 f33f 4aaf 8342 8575 e6bf
00000010: ff4f 4f0d 94f9 fe3f 738c ebeb ff6e e13f
00000020: 3260 db73 0aa9 f3bf 9306 e890 3418 c03f
00000030: bbcc ba97 0c4b e03f fee7 612d e15b 04c0
00000040: 0da9 2bf8 5d8d d8bf 5680 8e74 f66a 0140
00000050: 53ee ef6a 600a e63f 5dae dd20 534f dcbf
00000060: 44a7 c18f b5d9 e13f 6f98 ad20 4e8c debf
00000070: e7c0 40e6 b052 e93f 4116 8522 63e1 c93f
00000080: cb4a 63a7 ed5d f5bf 76e8 c761 3c5b f63f
00000090: 478a 3d07 6392 793f 8115 830d f2e1 e43f
000000a0: 8c4a 0538 cdd6 f03f 6552 7a5d f6af d63f
000000b0: 8ef0 3bed 38e5 b03f 7594 2413 0da4 0140
000000c0: c455 2513 568b 01c0 58c9 fa03 1c26 f23f
000000d0: 4b6d f285 381a f0bf 37d9 e316 d14c 0040
000000e0: 193e b7d0 0a10 cf3f 34fc f79b 768f e73f
000000f0: eeef 4c4d 27de debf 63ad 0009 b674 d83f
00000100: 4783 dc67 ff1b 02c0 33cc 5850 0acd ca3f
00000110: 681b 28be cbdc eebf b304 2e44 31cd f93f

6685 f8 [36]
0.3753945893341069 0.4539835646688777 -1.7444101043826947 0.6219748427099012 0.2860933658285285 -1.173356256715367 -1.6707540677617727 0.7095102042860127
0.859445295232938 -1.335824697944984 0.45303495634597674 1.1034135625536026 0.05089935169597117 -0.6652091464031801 -0.014324979666626532 0.22296437929025703
-0.3513848639870916 -0.8990113256598592 1.8637618855230313 1.167865281551368 0.3349386166567492 -3.2270931925712554 0.9843389209666158 0.9926403911192176
1.283634600678352 2.0084730225626246 0.3816873631642068 -0.5805392838308336 -1.9396715158559912 -0.23445919901245796 0.7803365953787308 -0.5195890835458129
1.2510420621278977 -0.4457690494350291 2.34987692827147 0.47620159691980996
00000000: 0143 1207 7706 d83f 3c28 cb14 110e dd3f
00000010: 802b d291 1ae9 fbbf ecf5 0bc9 37e7 e33f
00000020: 9082 758c 5a4f d23f 4764 d235 11c6 f2bf
00000030: ec21 0b9e 68bb fabf 47c6 72be 4eb4 e63f
00000040: c33f 776b 9380 eb3f f7cd edb7 895f f5bf
00000050: 37d9 5c54 86fe dc3f d416 d2fa 94a7 f13f
00000060: f3f5 d7d5 7a0f aa3f cfa7 19b1 6449 e5bf
00000070: 97e2 7839 6a56 8dbf 7cbf 9cc6 188a cc3f
00000080: e992 c8f0 167d d6bf 9b2a 4e66 b3c4 ecbf
00000090: b9a4 9dfb f7d1 fd3f f059 6681 93af f23f
000000a0: 7453 2d61 a26f d53f f5e6 593c 16d1 09c0
000000b0: ce68 3756 b47f ef3f 4876 11c8 b5c3 ef3f
000000c0: 35d7 5e6f c489 f43f 1d70 d64d 5a11 0040
000000d0: 348d 85d5 906d d83f 1a18 c31e c793 e2bf
000000e0: ff58 d9ff e408 ffbf 559f 0050 c202 cebf
000000f0: 9bc1 a073 84f8 e83f 1903 2649 79a0 e0bf
00000100: d127 6cae 4404 f43f 051e 39e8 7a87 dcbf
00000110: 3f68 6446 8ccc 0240 2db5 4443 167a de3f

13000 f8 [18]
-0.20408454596895445 0.06000775412511582 -1.0012367246727563 3.1102288493057038 0.7640611607802622 -1.4635897850324142 0.471676867196334 -3.4060384270017154
-1.6134353425238195 0.4820237822744511 -0.9528235013634847 -0.4207714776220541 1.0350297236365271 0.0414327225092108 0.2522163719891037 0.0678688050544588
-0.8388281997807719 0.6107257897742704
00000000: 2120 4741 711f cabf 7e93 f21a 56b9 ae3f
00000010: d960 c0cc 1005 f0bf ebbf b6a9 bfe1 0840
00000020: a33d 3664 3073 e83f 0d95 571f dd6a f7bf
00000030: d3d4 b82b f42f de3f 1a22 2713 913f 0bc0
00000040: 169b e593 a1d0 f9bf dcd4 3047 7ad9 de3f
00000050: 92ec 26b6 877d eebf ff7b de7d ebed dabf
00000060: 4382 d653 7b8f f03f 5d96 5278 ab36 a53f
00000070: c75f 4d23 5024 d03f d8a3 209a d95f b13f
00000080: c9ab a03c aed7 eabf b8ef bccf 108b e33f
