hw1/numpy/442solutions/w18.npz (npz, 3258 bytes, 15 tensors)

2210 f8 [7]
-1.5573421953213245 0.7780252236723331 -2.3443717622209226 0.39351733103178305 1.4346692378921513 -0.9138127093010778 2.978935021668505
00000000: fb5f 59a6 dfea f8bf 1c58 6427 95e5 e83f
00000010: ee3c 83fb 45c1 02c0 a934 cc50 632f d93f
00000020: 3e2f 15bb 67f4 f63f cbc0 a326 f43d edbf
00000030: 60cd 77e2 dbd4 0740

2600 f8 [4]
-0.9678410521584518 0.615331622516396 2.679903560885825 0.040750297547806624
00000000: a1e5 57cc 8df8 eebf 97e1 5cf1 cbb0 e33f
00000010: 2d82 3347 7170 0540 584a 8a16 39dd a43f

884 f8 [4]
-0.1935393024916228 2.0343767727465356 3.3182723770670535 -0.09753813570950998
00000000: 1199 5857 e5c5 c8bf d581 5554 6746 0040
00000010: 10c9 5563 d28b 0a40 2033 fc5e 42f8 b8bf

442 f8 [6]
1.4760578541267115 -2.8031151775688365 0.25317897329990785 1.1367920478275688 1.9981543104588058 -1.4758902588207157
00000000: 90a6 27d7 ee9d f73f 95a2 74a6 c76c 06c0
00000010: d7e8 9694 1534 d03f 3e5b bcdb 4c30 f23f
00000020: 1483 7ca7 70f8 ff3f 50eb a11a 3f9d f7bf

1337 f8 [7]
-3.6564085341817893 2.3736809317573533 0.7595079355747427 -0.9994431595640959 1.5244390648970632 -3.200299859478693 -2.8077958292712477
00000000: 3802 191e 5340 0dc0 0a4b a86d 4cfd 0240
00000010: 6412 0b96 e34d e83f 0b3d 9138 70fb efbf
00000020: b1a4 8737 1a64 f83f c6d5 0ed0 369a 09c0
00000030: 8c85 e4a8 5d76 06c0

157075 f8 [4]
-2.6940167344100825 1.1670468755181405 0.21866362005256723 1.0673852853657277
00000000: 1c58 49a5 588d 05c0 87fd 3358 39ac f23f
00000010: 0cb2 7964 2bfd cb3f f209 ce97 0214 f13f

31415 f8 [6]
-2.065747424394242 3.861132496208419 0.12665005049166345 -1.6297157025885238 -1.26715157432761 1.5533231750298615
00000000: 578e ec95 a686 00c0 6ee7 256f 99e3 0e40
00000010: 3000 73a0 1136 c03f 7253 c6c5 5013 fabf
00000020: f2fd acba 4046 f4bf 48f4 cd66 69da f83f

5200 f8 [6]
5.864878054472721 -3.0587524909943515 2.803045708738705 2.1213477877316778 4.760849109609035 -0.11918673329227997
00000000: 2af4 bb97 a275 1740 c108 db39 5378 08c0
00000010: 9ace 813a a36c 0640 fdfe 5d30 85f8 0040
00000020: 9ad8 6b07 1c0b 1340 ac7f 9b91 0583 bebf

62830 f8 [4]
-0.8302942261217134 1.2849736976624833 -0.2029376724987092 -0.2971732645219137
00000000: 2e03 6832 c591 eabf 90e3 7a94 408f f43f
00000010: 7410 4195 dcf9 c9bf d27f 1703 e304 d3bf

2674 f8 [4]
3.8895135362404964 -1.9409139222218659 1.2362881716238199 -1.560461701003665
00000000: 9804 dc45 b91d 0f40 3bb4 c4c1 fb0d ffbf
00000010: 23e5 181b d6c7 f33f 548a 47b0 a6f7 f8bf

18885 f8 [6]
-1.0973469738313413 -1.1397275933489965 4.001065916991299 0.7005091924962601 -1.8635475182349468 -1.3298252475884254
00000000: da85 4fb3 bb8e f1bf 0d86 3c00 533c f2bf
00000010: b678 7a6c 1701 1040 a833 0a41 926a e63f
00000020: e7c6 d533 17d1 fdbf 2699 bcd6 f646 f5bf

3777 f8 [4]
-1.3767299408644433 2.8202337444828025 0.05585847232066424 -0.7910031461314357
00000000: 20fd 76f9 1507 f6bf b808 9db5 d68f 0640
00000010: 94bf a44f 7b99 ac3f 305d 75d4 e54f e9bf

7554 f8 [7]
4.900455123714528 2.5448993049117425 -1.6565922686185388 1.9633788398922203 0.4825695304681822 -0.33527335412822734 2.171115916393228
00000000: 677a 6fe8 109a 1340 2bac b12a f45b 0440
00000010: 805e 08e5 6681 fabf 98ed 2fee ff69 ff3f
00000020: f20a da4f 6be2 de3f 94dc cc5e 1e75 d5bf
00000030: 33df 8505 725e 0140

6685 f8 [7]
-4.096184894473754 2.286272961146231 -1.658642679816822 0.9400439905285579 6.512783898595684 -0.01867330973885012 -0.23168695306756737
00000000: 3389 004b 7e62 10c0 2fd1 6e7a 494a 0240
00000010: 4002 19e8 cc89 fabf 3fe3 8322 d714 ee3f
00000020: 0e89 e938 170d 1a40 d0b6 8b9a 181f 93bf
00000030: 30e4 2a07 eba7 cdbf

13000 f8 [5]
-0.09428019083029943 -1.620114268957756 -1.2487800752992346 1.855463137705509 -0.38485757407351806
00000000: bcda 4620 bf22 b8bf dd4d 8ff0 fceb f9bf
00000010: f5e7 f4d0 00fb f3bf 2e0f 761d faaf fd3f
00000020: c4df 90a9 81a1 d8bf
