hw1/numpy/442solutions/w19.npz (npz, 3018 bytes, 15 tensors)

2210 f8 [5, 1]
0	0x3ff572f5e23b0f7b	1.34056652423257
1	0x3ff4f2e6073d09ad	1.3093014033080224
2	0xc0077cf12989d7a1	-2.9360068555060512
3	0xc00c7d9e6f6bc9ae	-3.561337347485469
4	0x401277e81feadc9c	4.617096422872375

2600 f8 [2, 1]
0	0x40023a20d480fc47	2.2783829309333075
1	0x3fb6fa9c09bdc198	0.08976149785826804

884 f8 [2, 1]
0	0x4010b652b247d3ee	4.178049836763405
1	0x3fec45cfaab8df7e	0.8835218748490516

442 f8 [4, 1]
0	0x4003696ca4ec21d9	2.4264767536699137
1	0xc0103247e44ced41	-4.049102370448339
2	0x3ff7e35b00468091	1.4930067072637352
3	0x3fe6df9d3e1ffec0	0.7147966588381323

1337 f8 [5, 1]
0	0xc00e0a6ad0f89f4c	-3.755086548411702
1	0xbffbc21e445b160b	-1.7348921461247098
2	0xbffcbcb73e89c802	-1.7960731928728824
3	0xbfff48ed65eb1795	-1.955304525488349
4	0x4009e15b0f1ecf4a	3.235036962630976

157075 f8 [2, 1]
0	0xbf78b0f2affdcb80	-0.006028125760951464
1	0xbfce10f7da8ba590	-0.2348928277126956

31415 f8 [4, 1]
0	0x4013d1f4fbdad0ca	4.955036101561015
1	0x4006817588eaff3f	2.8132124611583147
2	0xc008ddcff3d0ba30	-3.108306793982841
3	0xc0105367d331060b	-4.081450748316921

5200 f8 [4, 1]
0	0x400facf85b86c174	3.959458079385678
1	0x3ffa89f0ff753871	1.658677099115746
2	0x40068131869fa004	2.8130827443565085
3	0x400f8717e0e684b0	3.9409635134075742

62830 f8 [2, 1]
0	0xbff3c3d250aa0dfc	-1.2353079939792897
1	0x3ff309bbf882edf3	1.1898765284994368

2674 f8 [2, 1]
0	0x3feeb12e17cada9b	0.9591284241385724
1	0x3fe54a1e51be84ec	0.665297660500213

18885 f8 [4, 1]
0	0xbfe4cfcddeb46184	-0.6503667211245987
1	0x3fe34db8460191f0	0.6032372824961936
2	0x3fea3605984cdabd	0.8190944647420434
3	0xbff8036deb7c74dc	-1.5008372496297886

3777 f8 [2, 1]
0	0x3fe797239f41eb6b	0.7371996031282441
1	0xbf9d885b66da8060	-0.028840473320656534

7554 f8 [5, 1]
0	0x40020335dd3e2a09	2.2515675816150673
1	0xbfe363253dc486d7	-0.6058527189636277
2	0x40089d18c4427591	3.076707394865203
3	0x4016a01c291ee3d6	5.65635742426908
4	0xbfd3b9fc040ac04a	-0.30822658915258627

6685 f8 [5, 1]
0	0xc006ceffeb8a7da5	-2.85107406631842
1	0x3ff2cde76b126df8	1.1752695257663373
2	0x40029935752b5fd4	2.324808993707828
3	0x3ffd7d82477c304f	1.8431418220889275
4	0x3ff3de46cc8aa326	1.2417667379288075

13000 f8 [3, 1]
0	0xbfef75640013023a	-0.9830799104166268
1	0xbfda5533733d3dda	-0.41145025495367593
2	0xbfb9191239dfbae0	-0.09803880608499638
