hw1/numpy/442solutions/w2.npz (npz, 14610 bytes, 15 tensors)

2210 f8 [10, 10]
000000 2e c7 76 5d 6f 6b 12 40 9f 79 9e 79 ab f7 1e 40
       4.604917011618268 7.74186506299739
000010 c2 c6 d0 c9 26 22 d9 bf 33 11 10 41 1f 2a 1e 40
       -0.39270944317386747 7.541134850125945
000020 a1 88 19 8e 00 41 28 c0 86 3d 13 be 30 2b 22 c0
       -12.126957359902294 -9.084356250618622
000030 98 69 f5 1d c3 72 08 40 b2 c5 a4 48 a3 35 09 40
       3.056036218692679 3.151190345314455
000040 85 78 83 7b 39 27 0a 40 8b 25 e9 c5 fe 45 e3 bf
       3.269152607869787 -0.6022943368381432
000050 62 39 b2 e1 fe f8 1f c0 a7 77 bb f3 bd fa 29 c0
       -7.993159796240748 -12.989730469354823
000060 8e 76 25 ec 4d c3 08 c0 6d a6 08 68 0d e3 2c 40
       -3.0953634690220673 14.443461657577439
000070 ed 81 c3 17 cb 57 1f c0 a9 b7 0a 8f 98 5e 02 40
       -7.835735675151665 2.296189420237131
000080 3d a0 01 52 bd f1 31 40 3e aa 18 74 d5 6e 31 c0
       17.94429504909225 -17.432944541951876
000090 98 b6 1c d2 e6 84 0a 40 89 2c 77 81 d1 9e 33 c0
       3.314893380643138 -19.62038430366059
0000a0 aa 76 6f 6d 5c 5c 07 c0 0c 9f 85 bd 65 93 29 c0
       -2.9200981664315195 -12.787885592042151
0000b0 54 b1 e2 03 6f 4e 2f c0 f8 27 5e cf f8 a4 16 40
       -15.653190728590438 5.66110538494285
0000c0 de 98 dc 16 91 04 01 c0 d6 0c 79 41 09 51 19 c0
       -2.1272298608847526 -6.329136870396914
0000d0 c3 34 a4 81 89 5f 0b 40 dc 65 41 43 ed 84 0f 40
       3.421648991416619 3.9399056677182056
0000e0 59 f3 0a 1f aa 9e 1b c0 ce ea 46 97 c7 39 1f c0
       -6.904945836108561 -7.806425441459124
0000f0 e0 ca 28 8a d7 2a 34 c0 4c 56 d0 a5 cf 9c 0b 40
       -20.167351374587156 3.4515679315761982
000100 8d 7c 93 13 fd 3f 29 c0 8d 70 16 08 56 c7 2b c0
       -12.624977695230223 -13.889328243960586
000110 c0 1b 9e 14 9f cb 13 40 5a 23 35 cd 1b 6a 31 40
       4.948849031591578 17.414486718629043
000120 cc 0e bd 98 53 28 00 c0 eb bc 41 f6 d4 4d 13 c0
       -2.0196906979270803 -4.826007697832419
000130 2b 8f e0 0f 49 9d 24 40 1a c9 5e 0d d6 b9 26 c0
       10.307198043977754 -11.36296121389437
000140 4e ee 6b 1d b5 29 20 40 bd 7d 19 3f 4c 11 10 c0
       8.081459922242313 -4.016892419749124
000150 87 cb 89 42 5f ab 15 40 2c f1 d5 11 62 c8 1c c0
       5.4173555752375995 -7.1956866061048395
000160 db b3 72 d7 ae 0f 13 c0 e8 fa 82 df 47 8f 30 c0
       -4.765315405250443 -16.559690446355404
000170 eb 19 52 4e 22 f0 11 c0 8d 2b 89 6a c2 53 e8 bf
       -4.484505866776526 -0.7602245407846212
000180 2f 89 3c ff 21 f0 26 c0 63 db b4 a8 3a fa 27 c0
       -11.469009376659043 -11.988728782727497
000190 75 b6 10 39 72 9d 08 40 dd 6e bc b8 1c 98 06 c0
       3.076878019163639 -2.8242735321526724
0001a0 47 2b 17 63 7d da 2f c0 e0 f3 c9 1a 22 31 26 40
       -15.926737877443555 11.095963322784826
0001b0 ef d5 63 bf 3f c0 1c c0 2e b3 ec fd f8 62 1a c0
       -7.187743177860724 -6.596652953693406
0001c0 32 91 02 e2 68 c3 e6 bf 68 ba 3e 06 4b 7b ec 3f
       -0.7113537229784355 0.8900504228566435
0001d0 8e 67 87 26 88 f4 17 40 24 83 a9 27 7c 10 20 c0
       5.98880062295383 -8.032197226946273
0001e0 a9 a1 5d 53 14 6d 28 40 a0 45 23 98 3a e3 1d 40
       12.213045697383523 7.471903206971007
0001f0 03 f3 13 4e e7 e9 1b c0 d3 82 3b 5e 6a 57 12 40
       -6.9784214210201325 4.5853666995833064
000200 4a f4 a3 8a b8 5b 2d 40 86 bf 43 1f da a1 38 40
       14.679142315401027 24.632234529533456
000210 92 fc b7 a2 4a b3 15 40 68 c5 57 91 c9 da 0e 40
       5.425089399795199 3.8568297724638576
000220 0f ca 09 20 7f da 34 c0 e8 33 ae 42 f1 36 1d 40
       -20.853502275838817 7.3036547106575895
000230 5d 1e 72 8f fd ba 1b c0 ed 92 5c 4b be 9a 20 c0
       -6.932607880916831 -8.30223308091214
000240 7d ac f0 96 04 82 24 c0 74 14 26 1e 45 cc 2e 40
       -10.253941265944599 15.398964826725411
000250 95 5b 70 80 a6 0c 10 40 b2 73 88 c9 f8 03 22 c0
       4.012353903634808 -9.007757470995646
000260 6e 62 9b 24 a1 d2 2b c0 4c 34 24 7b fd 54 23 40
       -13.911385673492273 9.665996406716793
000270 c9 44 6a 4d bc df 36 c0 20 80 f2 bb e0 1b 15 c0
       -22.873967016644006 -5.277224480320029
000280 24 ba 0e 12 8d 7f 14 40 43 9f 91 27 66 fb 2b c0
       5.124561578892585 -13.991013752485406
000290 b1 68 a2 08 34 92 1a c0 11 af 29 03 53 72 1d 40
       -6.642776617920547 7.36164479200285
0002a0 2e 12 04 03 5f fe 0a c0 ae 96 ff ca 14 c9 f8 3f
       -3.374204658090341 1.549092095339272
0002b0 ca 78 dd 30 bf 23 21 40 df ec 7e 99 4a d2 13 40
       8.569818045649658 4.955362699863342
0002c0 4b 49 e0 e7 d2 c4 18 c0 ca 08 41 b2 26 3b 0b c0
       -6.192210791649198 -3.4038824010941413
0002d0 cf 35 43 15 38 3d 2d 40 ee 5e ce 04 45 b8 00 c0
       14.619568504766816 -2.089975392864168
0002e0 61 fa 6f ae e8 25 15 c0 c6 cb 6c 22 1d d4 13 c0
       -5.287020421585653 -4.957142389192944
0002f0 da 44 b0 ed d5 cb 2b 40 c3 a2 da d5 4d 57 22 40
       13.898116519705969 9.17051571172613
000300 0d a6 79 c6 10 0f 0f 40 9c 35 51 79 0e 0c f1 bf
       3.8823562150835245 -1.0654434908823083
000310 8e fb ea e5 01 f4 19 40 63 e1 33 4d 69 84 19 c0
       6.488288490740969 -6.37930794362214

2600 f8 [10, 10]
000000 b7 94 ce bf 3c 6e 13 40 52 40 11 88 2f be 14 c0
       4.8576536149823175 -5.185728193333562
000010 f2 57 83 65 4d 79 0c 40 58 cf b5 b3 90 9d 1a c0
       3.559229653425967 -6.653872306796835
000020 28 40 54 9d 67 13 15 c0 e2 52 5c cd 3d 62 01 40
       -5.268949945704698 2.172969440822599
000030 aa d3 96 d0 ef 12 00 c0 86 de c1 26 3e fa 02 c0
       -2.0092464729336443 -2.3721888568796343
000040 80 0c 3c 81 91 3c 26 40 62 e8 12 4e 2b be d9 3f
       11.118297613697223 0.40223200439834816
000050 74 9d 8b f5 e0 47 2d 40 e7 4d f5 92 67 35 2e c0
       14.640388177197316 -15.104305832332967
000060 ec 30 9f 58 14 8e 0b c0 a4 36 0e ad 46 19 03 40
       -3.4443747447568196 2.3873418350184057
000070 82 62 e6 29 65 e9 2d 40 91 34 40 fa 98 b1 3c c0
       14.955849942563194 -28.693740502047664
000080 57 eb 22 2d b7 a5 1a 40 43 99 8b 4d c6 e8 27 40
       6.661831574684434 11.954637931147436
000090 da 85 1b 7f b6 20 31 c0 79 32 43 42 ad 70 28 c0
       -17.127784675807426 -12.220071860029963
0000a0 d5 e6 60 19 d1 98 19 c0 26 79 09 99 37 f1 18 40
       -6.399235149897966 6.235563651278687
0000b0 c0 e1 98 bc ee da 29 40 b8 7b f8 04 91 52 21 c0
       12.927602666532835 -8.661262660343581
0000c0 e7 b7 a1 b6 9e ae 04 40 69 89 6f 15 b8 3c 23 c0
       2.585263659296277 -9.618591947427108
0000d0 65 31 be 4d 51 c7 02 c0 91 07 c6 0f c5 44 26 40
       -2.347323043219307 11.134315960811167
0000e0 05 7a 3b bf 8d ee dc bf 99 94 86 e4 25 16 21 c0
       -0.4520601623061398 -8.543257848194388
0000f0 d3 53 fd 9e 26 a4 29 40 9c 93 6b f7 f8 ae c4 bf
       12.82060715525032 -0.16158973771157725
000100 f7 05 f4 36 1a 33 0d c0 6c 05 3a 6b c4 2c 18 40
       -3.649952344247818 6.043718028465587
000110 b3 af 7c df 4a bc 23 c0 8e fe ce d0 26 8f 35 40
       -9.867758735628604 21.559186029945117
000120 62 f8 7f 77 af 2c 3a 40 99 d0 41 a5 2d e8 0c c0
       26.17455241083406 -3.613368311949739
000130 3f a2 08 bf 96 89 32 40 b7 f6 17 d1 62 da 16 40
       18.537456454856734 5.713267581069593
000140 8b 2e 39 f3 69 7a 0b c0 8d 8b bf 86 d8 37 2d c0
       -3.43477239626174 -14.609073840028737
000150 63 28 84 28 d5 2c 14 40 24 a8 c0 60 a9 d0 28 c0
       5.04378188425662 -12.407542251126934
000160 04 66 41 ea 02 f6 22 40 d6 af cf 43 95 b8 fe bf
       9.480490990145888 -1.920064225089836
000170 8d cf 44 0c bf 07 27 40 03 fe bb 10 d2 df 10 c0
       11.515129454993962 -4.2185747732869485
000180 d2 9e d4 98 b4 bb 1b 40 83 af d4 c7 ee 8c 17 c0
       6.93330611036045 -5.887629625660227
000190 94 cb f9 7f 79 bb 14 40 41 e0 4c 83 0f b0 2c c0
       5.183080672856608 -14.343868353971745
0001a0 62 e4 26 88 cd 69 08 c0 83 9b d1 93 d2 76 20 40
       -3.0516615521305974 8.232075328194474
0001b0 8a f0 47 96 a5 02 23 40 e3 5f 96 3f 6c e6 29 40
       9.505169578820887 12.950044619661588
0001c0 a2 da 32 3c 14 c0 27 40 be 54 cf eb d6 ff 11 c0
       11.875154381950157 -4.499843296555978
0001d0 9d 30 dc ed 01 cb 1b c0 ac b7 25 4a 69 85 33 40
       -6.948249546589207 19.52113784237706
0001e0 e1 33 ac 7e d9 a4 2a c0 ad 33 bd ab d5 73 20 40
       -13.32197185375293 8.22623955425828
0001f0 34 b6 f7 96 e6 90 2f c0 b5 ca f8 b5 27 4b 27 40
       -15.783009259927987 11.646787344570251
000200 0a b5 3b 3a 48 8b 0d c0 eb 29 6d 9e cb 6b 35 40
       -3.693008856722945 21.421075727130226
000210 2c 1b 11 1e b7 a2 32 40 2b 03 c1 a7 82 f1 13 40
       18.635606650520614 4.9858499728732495
000220 be f8 1b a1 4a 2a 32 40 bc 8c 76 95 6d b9 09 c0
       18.16520125325109 -3.215541045837737
000230 f0 5e 73 3a c0 ea 21 40 12 0a be ee 32 8d 09 c0
       8.958497835715633 -3.1939448024506953
000240 95 45 21 ab 55 23 1c 40 32 61 3b 10 5d 7d 19 c0
       7.034506486802816 -6.372425321220634
000250 02 36 3e 6e 13 d2 23 c0 5e 19 64 bb 37 5f 0f 40
       -9.910304493993866 3.9214930190966433
000260 64 0c 6a c4 70 9f 24 40 e0 95 ae 9a 1f 02 18 c0
       10.311407220788347 -6.002073685556269
000270 4f d9 0b 40 2d 73 d1 bf 3d c7 75 11 21 08 07 40
       -0.27265483145256025 2.878969322592552
000280 ae 47 c6 1b 14 82 f3 bf 42 b3 4e 26 b4 77 24 40
       -1.21925745820452 10.233796307665788
000290 82 cf 2e 87 f5 a4 18 c0 83 c2 46 2f da 9f f0 3f
       -6.1610928652115735 1.0390264364943114
0002a0 26 6e a5 67 3c 6d e4 bf fd dc 9b 0a 69 bb f3 3f
       -0.6383344673481062 1.2332544721992342
0002b0 8a fe 37 06 56 8a fa 3f 28 bc b3 3d f0 a9 34 c0
       1.658773445407777 -20.663822037106144
0002c0 f8 bd ae 21 24 07 1d c0 7a 22 0a b5 55 46 34 40
       -7.256973768511209 20.27474528787068
0002d0 bb b0 e9 da ae d0 2f 40 78 44 c3 36 01 6e 1e c0
       15.907584038759856 -7.607426505726032
0002e0 11 31 e8 e0 f4 80 15 40 2a a6 76 37 d9 ac 16 c0
       5.375934137508254 -5.668797365776792
0002f0 8b 53 01 39 a3 d0 11 40 5f 00 ac ab ff fd 20 40
       4.453747645097688 8.496091236826201
000300 b0 19 6a f4 ef d0 25 c0 4d 0a 3d 25 c7 ed 11 c0
       -10.908080709411337 -4.482204992151833
000310 a7 5b f0 7a 13 2d 0a 40 90 fd 4d 1c a8 4e ce 3f
       3.2720098118401952 0.23677541143477443

884 f8 [10, 10]
000000 36 10 1a 04 ae 78 f5 3f 36 2e 3b c8 bf 9b 13 40
       1.3419628296114872 4.902098778354732
000010 e9 bf 84 2e 3f b3 1b c0 d3 97 65 27 51 e3 22 40
       -6.925045706608196 9.443978530074594
000020 e7 28 67 4a 87 0f 23 c0 81 c1 57 67 7a 81 2b c0
       -9.530329060642954 -13.752886990988147
000030 8d a4 9c 93 bb f0 0c c0 2c c8 63 9d b9 b0 08 40
       -3.6175452739885885 3.08629153214226
000040 bb 00 68 40 f5 e6 07 40 d5 9b be dc c4 2b 24 40
       2.9877724677790787 10.085486315028826
000050 d2 bc f1 ea 74 05 37 c0 33 50 9a d3 67 75 25 40
       -23.021315273302044 10.729307758891172
000060 fe ec 9e d7 bc df f3 bf 37 8a 04 86 14 5e 34 40
       -1.2421234533965726 20.367500663860678
000070 af 0e 7c 02 3a 6c fc 3f 20 4a 3d 87 bd d1 1a 40
       1.7764225098662043 6.704824555507486
000080 23 c4 37 2f 52 4b 3d c0 2a f1 f3 39 fb 7b 1a c0
       -29.2942227851055 -6.621075540079156
000090 ad 32 28 f6 22 c1 01 c0 f5 60 5b 28 6b f7 16 40
       -2.219304965116257 5.741619711472812
0000a0 16 a3 cb c1 72 b5 2b c0 dd f4 c4 fd 4e ea 0e 40
       -13.854391151531257 3.864408476422439
0000b0 40 ab 85 66 41 90 3a c0 e4 83 07 7b e8 0a 10 40
       -26.563497932085056 4.010652468045894
0000c0 87 d1 b4 b8 bd 93 30 40 83 17 71 1b c9 44 fb bf
       16.57711367048753 -1.7042933532661386
0000d0 41 5a 4d 17 c2 46 14 40 9a 7d 25 61 09 b8 ea bf
       5.06909977349875 -0.8349654099837835
0000e0 89 e5 25 25 a7 51 14 c0 b3 9b 60 25 81 df 33 c0
       -5.079739170492197 -19.87306436165427
0000f0 a0 20 69 d5 8c 7f b9 bf 26 bb 5b a0 a6 3a 08 c0
       -0.099602510549746 -3.0286381271356673
000100 62 61 5d 65 3d 44 20 40 d9 1b 06 f1 f7 97 21 40
       8.133280913971877 8.79681351852007
000110 50 b8 6a 29 34 9b 02 40 38 27 54 a5 c5 6d 2b 40
       2.3257830844586707 13.714398542902572
000120 41 5c 58 b1 b2 ac 16 c0 b2 f8 b8 b6 9e f2 25 c0
       -5.668650408762063 -10.973867139892125
000130 38 03 6b ea 58 61 39 40 5a ba 55 09 36 26 36 40
       25.380262995840184 22.14926203101127
000140 52 44 46 31 6d bc 26 c0 3c c8 ad 7a 9a 83 0b 40
       -11.368020572497844 3.4392594894680126
000150 3c 8f 99 bc 8f 94 14 c0 64 e1 47 dc 7c 23 20 c0
       -5.145079562065629 -8.069311984800784
000160 8a 5e cd ca 87 5d 21 c0 e5 23 9e fb aa 1d 2b 40
       -8.682676637238973 13.557945120863176
000170 89 0f 1e 1c 20 9c 32 40 72 e0 a8 47 68 2d 01 40
       18.609864957179102 2.147171554413995
000180 7e 2b ba 50 be da 22 40 93 df f8 e5 54 b7 1a c0
       9.427233240819756 -6.679034798922561
000190 16 e6 0f 3a 5f be fc 3f 10 24 7a 68 a8 c7 9a bf
       1.7964775341082535 -0.026152259232308295
0001a0 64 be 67 fc f6 c6 32 40 6c a5 46 0c 90 3a e2 bf
       18.777206206634574 -0.5696487655415416
0001b0 12 39 98 ca 09 4b 26 c0 27 89 54 6d dc b4 fe 3f
       -11.146559077340985 1.919155528136409
0001c0 3b 5f 09 77 86 31 14 40 90 e7 69 2b 0a 69 25 40
       5.048364505717298 10.705155712774086
0001d0 bd 17 d2 01 3c e1 ea bf 98 25 ae e9 ed 18 fa bf
       -0.8399944339332631 -1.631086266339798
0001e0 6d 8d 17 78 74 9a 2b 40 75 ce b9 00 aa 8c 2f c0
       13.801669838786177 -15.774734518701033
0001f0 6e 85 7e 9c fd 93 21 c0 4a a2 96 a8 01 6f 32 c0
       -8.789044275707706 -18.433619057441582
000200 f8 3a 1b da cd 51 0f 40 19 b0 4c 8e c0 af 11 40
       3.914943412738804 4.421632979803712
000210 cb 7f 60 dc 8e 24 0c 40 9b 87 08 c4 3e e1 20 40
       3.517850610442087 8.439931989709114
000220 e1 a9 54 fe a2 b9 25 40 40 5c d2 01 23 98 07 40
       10.862571666560088 2.949285520775021
000230 13 fa 14 24 a4 4a 1e 40 0d 29 9f 6f 6c b0 eb 3f
       7.572891773014379 0.8652860813247415
000240 92 7b e3 40 30 90 f9 3f 57 16 c8 0c 1d bb 15 40
       1.5977022680960755 5.432728004181249
000250 9f 2b e0 cb 51 2b 20 c0 ad dc 80 8d 10 52 23 40
       -8.084608431925345 9.66028253744147
000260 1d 69 84 4f c7 a3 e6 bf ea c0 d6 2a 26 a8 30 40
       -0.7074924996443631 16.656832387380668
000270 a7 77 79 51 38 21 1a c0 c2 19 98 aa 81 a1 36 c0
       -6.5324413996112645 -22.63088480199236
000280 79 50 85 b1 7e 14 1d c0 42 d4 ce 2e ac 24 36 40
       -7.270014547120916 22.14325230168857
000290 ac 69 9c c7 0a c6 12 40 92 7b 61 1f 69 0f ed 3f
       4.693400496408156 0.9081311810403909
0002a0 4d 68 87 2a 12 e8 22 c0 ce 8b 97 a6 a1 af dd 3f
       -9.453263596562602 0.4638446928858543
0002b0 fb ef d7 5c e0 41 fd 3f 98 87 1f 2e fe b0 1c 40
       1.8285831095408855 7.172844620394152
0002c0 68 9b ac 1f a3 2d 24 40 28 2e 7b 3e c3 87 1d c0
       10.089135160274694 -7.382580734508828
0002d0 37 d7 8b c6 3e 2f 09 40 eb 6c 79 db 2e 0e 04 c0
       3.148068953650092 -2.506925310748206
0002e0 c3 83 e0 da 8b 56 33 c0 3a b5 56 d6 1e 95 0b c0
       -19.33807151776615 -3.4478127236567646
0002f0 e4 ed 26 a7 f8 7b 1e 40 2a 75 7c ca 45 aa 11 40
       7.6210657231817756 4.416281856390279
000300 3e b2 b1 47 36 40 18 40 e6 cc 59 b0 a1 af 26 40
       6.062707061978072 11.343030463182412
000310 65 6f 61 1c ac ad 1a 40 f1 0f b5 92 76 8d 28 40
       6.669601863333672 12.276295265772179

442 f8 [10, 10]
000000 d7 a9 6e df 17 64 14 c0 17 20 ab 73 09 d5 20 40
       -5.097747317437515 8.416087736739469
000010 ab de 53 ee d1 c4 1d 40 dd ad ba 07 29 e3 0c c0
       7.4422070730867445 -3.610918102631088
000020 8c 35 fd 51 97 7d 28 40 a0 b5 a3 1c ad ff de 3f
       12.245295107039759 0.48435523793053825
000030 25 7b b4 d4 31 fc 11 40 47 3a 26 f3 0d e8 f9 3f
       4.4962838397175675 1.6191539285679413
000040 e9 7d 42 93 6e 97 34 40 80 1f 36 26 05 3e 04 40
       20.591530994160994 2.5302832589404147
000050 ab 23 d3 8d 99 4f 29 40 e7 de 14 aa 1a 3d eb 3f
       12.65546839907059 0.8512090036301431
000060 10 78 ae 19 a7 f9 24 c0 d6 f4 78 c1 89 16 10 40
       -10.487602999255643 4.02200987149009
000070 14 a4 90 c0 49 75 2d c0 08 2b 46 1a 2f ee 21 c0
       -14.7290783096851 -8.965203114571992
000080 6d aa 3a 2e 49 ed 2f c0 d6 37 a2 d4 39 db e2 bf
       -15.9634489485372 -0.5892609742165813
000090 ac 44 c7 6f 77 ff 0e c0 9d 22 71 1b ff c7 19 c0
       -3.8747395260512203 -6.445309094219422
0000a0 af ce d2 cd 71 68 dc bf 18 a4 04 17 45 71 dd 3f
       -0.443874789237479 0.46003844497551105
0000b0 40 db ff f5 65 0d 11 c0 66 f9 fa 27 57 13 21 40
       -4.263084262601126 8.537774323832036
0000c0 4e 20 f3 74 97 98 43 c0 fa 5c af 84 54 4a 2b 40
       -39.19212209578892 13.645176073462142
0000d0 0c 9f 28 82 0d 4c 27 40 7c 24 8a 33 8e 39 24 40
       11.648540561159756 10.112413035023785
0000e0 de 14 86 22 d6 1d 30 40 36 f9 f5 60 b9 38 24 c0
       16.116548688635582 -10.110789327646312
0000f0 fa e9 fa ae 31 d1 09 40 8f f4 16 76 48 bf 26 c0
       3.2271455450365893 -11.373599710752641
000100 ed 38 b6 ee b2 3a 2b 40 a3 e3 5e 13 d3 ff f1 3f
       13.614646396392766 1.124957156817097
000110 a0 4c 7c ac f2 82 15 c0 9c 6f 4c 84 50 77 22 40
       -5.377878851973179 9.233036169367374
000120 54 82 9c 62 60 5a 24 40 de c5 21 4e ae 83 24 40
       10.17651661072265 10.257189218161269
000130 9d 8b 16 1c c1 7d 27 c0 c6 95 13 12 fe 61 e8 3f
       -11.745613935234184 0.7619619706207963
000140 79 6a c6 fa 59 16 10 40 dd 90 06 e5 26 42 ff 3f
       4.021827619896265 1.9536503740610478
000150 04 d0 0e 95 0a 9c 23 40 0e 8b 60 ed f5 60 33 40
       9.804768236215757 19.378752552099336
000160 c2 c6 08 88 ef 0a 1f 40 af 38 24 5b 8a 23 1c 40
       7.76067936471526 7.034707473836689
000170 17 3f 5f 14 5b a2 2f c0 ec 90 db 5b cf 55 34 40
       -15.817101132036937 20.33519529448033
000180 b1 3d 81 36 1d 31 23 40 1e 9b b1 81 b5 62 11 c0
       9.595926001812446 -4.346395517792898
000190 49 57 78 29 38 87 14 c0 54 5e 31 9a 8d 78 20 c0
       -5.13205017849925 -8.2354553399338
0001a0 17 e0 39 4e 42 6a 1e c0 b4 73 d2 f8 c2 2e 20 c0
       -7.603768560678893 -8.091331268014848
0001b0 2d 46 97 f8 ce f0 f5 3f ee 61 25 63 d5 99 3b c0
       1.371291132982502 -27.600912281633946
0001c0 23 d9 e1 cf 14 58 0c c0 a1 95 29 c0 b8 33 32 c0
       -3.5430084458158873 -18.20203782096144
0001d0 b0 7b d4 2d f5 df da bf 1e 4a e4 f3 63 93 30 40
       -0.41991929507815495 16.575743907198664
0001e0 9e 14 e9 ed 0d b7 2e c0 98 80 45 d4 64 86 ea 3f
       -15.357528147413458 0.8289055009772879
0001f0 61 7a 54 31 17 b8 e0 bf c6 12 a5 2d f6 57 19 40
       -0.5224719966389096 6.33590003318813
000200 ed c5 2a 2f 87 a9 24 c0 92 15 15 ec 2c 6a 05 40
       -10.33110949895032 2.6768434947904973
000210 f3 bc 4f ba 75 f0 ea bf 62 11 5c ff 58 40 02 c0
       -0.8418530119796784 -2.2814197492572683
000220 48 6a 1c 2c 2e d9 2a c0 e1 fe 59 99 0b 05 25 40
       -13.424180391758583 10.509854118572038
000230 78 2f fa a1 1e 6e 05 c0 f9 e9 a0 72 32 aa 02 c0
       -2.6787693647838147 -2.333104033981041
000240 82 1b d3 92 c7 f8 22 40 5f e2 e9 e8 2c b5 09 c0
       9.48589762522693 -3.21346456493147
000250 a9 39 11 54 23 48 20 c0 30 cf 0d 2a 62 12 cc bf
       -8.140894534208956 -0.21931101849951906
000260 f9 6b 63 a9 b5 78 13 c0 33 d4 64 55 fd 45 11 40
       -4.8678804842884285 4.318349203375919
000270 76 7b 77 b8 28 be 26 c0 fb cb da e0 ab 44 37 c0
       -11.371404423318136 -23.268247655312717
000280 0f 1a bf 82 4d 14 16 40 c0 99 88 07 a2 ca 1e c0
       5.519826929963997 -7.69788371821636
000290 e0 06 46 b9 8e c4 2c c0 60 5b 7f 19 42 ed 33 c0
       -14.383901395605278 -19.92678984984684
0002a0 ff dd ec 5f d6 8f 2c 40 16 d1 bb b7 bd 49 1a 40
       14.280932424225282 6.572012778128075
0002b0 fb b0 0c bf d4 12 17 c0 80 90 1a c0 44 97 19 c0
       -5.768389687680833 -6.397723199483266
0002c0 c7 b7 cd a8 ad 78 19 c0 c9 09 d0 11 cc a2 14 40
       -6.36784995799639 5.158981588671346
0002d0 66 da 0d 9a 61 d6 0f c0 a2 bc f7 14 4d 1c 1e c0
       -3.9796783481099736 -7.527637794132859
0002e0 1d cc b3 05 24 14 10 c0 89 da 8e 6e 87 81 03 c0
       -4.01966866407295 -2.438246597036884
0002f0 7c 2b 24 7e 6b fa e0 bf 64 6c e1 1c ee 15 1e c0
       -0.5305688346573869 -7.521416140803101
000300 4b 3b 21 b3 9d 53 10 c0 bf 8a c9 5a 67 84 f6 bf
       -4.081656264212891 -1.4073251291635385
000310 c2 e9 aa 81 c4 ce 11 c0 c9 bf f5 15 43 f8 12 c0
       -4.451921487862309 -4.742443411945666

1337 f8 [10, 10]
000000 fb 81 b0 bd b8 eb 20 c0 16 7c 00 48 9f 8f fb bf
       -8.460393836780886 -1.7225640118192636
000010 c2 bb 8e ce b6 c3 16 c0 e0 bb 35 2c b9 f1 b9 bf
       -5.691127040349729 -0.10134465531676495
000020 73 2b d5 d0 12 69 22 40 20 7d 7b 75 13 1f 25 40
       9.205221677800841 10.560695334743798
000030 89 13 e1 d6 84 f7 25 40 63 14 7b 11 c3 9e 19 c0
       10.983435358977447 -6.405041001450715
000040 9c b5 e6 51 54 c3 24 40 be da 4a 36 ce 60 33 c0
       10.381502684986849 -19.378146546626105
000050 00 f4 f7 e0 76 52 12 40 bb 94 cb e0 ae 26 0a c0
       4.580531611570223 -3.2688882410171494
000060 f6 66 8d 96 98 58 21 40 fa f3 ed 10 c1 d6 1d c0
       8.67303915477849 -7.459720863841534
000070 ef 8b 6a 20 05 86 25 40 9c 8d a8 4e d1 4a d0 bf
       10.761757863050631 -0.2545665043018859
000080 47 e3 15 58 0f f3 13 c0 8d 71 01 1b 0b 4f f0 3f
       -4.987363220535207 1.019297700396325
000090 fe c5 54 cd 74 3c 25 c0 7d 5a ef 2c 36 4e 05 c0
       -10.618078629110638 -2.663189269117821
0000a0 18 10 45 f6 5b 98 22 40 03 0e 52 d5 14 11 2e 40
       9.297576614313627 15.033362070337722
0000b0 a7 3a 25 86 48 5c 1e 40 bd d4 65 bb 8d 1c e7 3f
       7.590120407125744 0.7222355518448677
0000c0 78 91 3c 9b 79 b2 f8 bf 8e f7 3f 8c 57 51 13 40
       -1.5435730041436653 4.829435531048047
0000d0 25 09 fb b8 f8 41 f1 bf 20 54 fc c4 d6 af 2e 40
       -1.0786063409619342 15.343435436059792
0000e0 e1 f9 3d bb 86 c6 03 c0 a9 86 e6 a3 c3 a9 f0 bf
       -2.47193666727911 -1.041446342693613
0000f0 49 68 d2 43 40 50 1c 40 0f 44 e5 8f 1d 81 29 c0
       7.0783701512501205 -12.752178665863566
000100 ca eb 24 16 d0 ca 0a c0 da ac 19 8d f4 68 32 c0
       -3.349029706002942 -18.409981554764137
000110 6d 07 06 c9 41 cf db 3f fa 74 3d 72 9c b5 35 c0
       0.4345249617691625 -21.709418430332313
000120 3a d3 cd 5e cf 72 12 40 b6 db 6a c1 ae aa 04 40
       4.612119180023734 2.583341132234149
000130 ae 2c 50 26 08 b3 e2 3f d9 fd 39 ea ee c8 11 c0
       0.5843544719986278 -4.446223888196493
000140 59 e1 75 f2 21 d1 21 c0 df 7d ff 98 d2 54 0a 40
       -8.908462120904618 3.291417308136928
000150 d9 bd 29 4a 2b 7c 21 c0 01 d1 c6 80 a7 e5 2d 40
       -8.742517774196061 14.948543571729262
000160 67 d1 3f d8 63 82 3b 40 49 18 84 95 97 e8 10 40
       27.50933600957924 4.22714074724906
000170 70 39 69 09 84 d9 17 40 cf 94 aa fb 6b 73 1c 40
       5.962417742774377 7.112716610228019
000180 34 ec a3 05 6b 90 13 c0 b0 43 a0 f1 83 0c d2 bf
       -4.891033256654783 -0.2820138797406413
000190 14 6d 07 56 97 b3 d0 3f d2 2a 20 76 25 c1 1d c0
       0.2609613742949517 -7.43861946650823
0001a0 b0 9d ae de 9b 59 13 40 02 9a a8 c3 a9 67 21 40
       4.837508658797944 8.702467073756456
0001b0 50 62 f2 85 cc 5e 19 c0 d1 bf 1d de b3 ad 1b c0
       -6.342577069205234 -6.919631453099968
0001c0 9a eb ae a4 86 1f 0c c0 6c 6e 24 ae 57 f3 29 c0
       -3.515393530452866 -12.97527832216948
0001d0 52 4e 81 33 72 0d 28 c0 7d ff d6 4e c0 b2 20 40
       -12.026261910948197 8.349123443360208
0001e0 f5 00 a0 1a e5 6e 23 40 79 f0 c4 a5 fe 4b 1b c0
       9.716591674834925 -6.824213590760444
0001f0 d4 00 21 36 a3 f1 e1 3f e0 a2 71 32 1f 42 22 40
       0.5607467705922553 9.129144264575586
000200 42 66 91 2d 4f eb 12 c0 21 4b 9d f5 53 78 31 40
       -4.7297942275996 17.470031119252898
000210 6b 7e 41 47 a3 df 05 40 c7 62 0f a0 53 dc 11 40
       2.734198147474492 4.465162754954412
000220 2a 67 0b e1 c9 e7 23 40 d3 f0 ce 26 aa d5 24 40
       9.9527120901508 10.417313778649634
000230 71 1d f0 0c eb df 26 c0 82 ff b9 61 7e a3 18 40
       -11.437340168295778 6.159661795594618
000240 1a 23 68 e5 ab eb 19 40 68 8b 3a 0a 56 da 1e 40
       6.480147919159913 7.713218841384197
000250 5a 85 ef 6a 3b 2e 22 c0 62 27 bf ae a5 9b 13 40
       -9.09029707120742 4.901999216477494
000260 a6 91 c2 c9 a5 7a 06 c0 63 02 93 08 16 51 26 40
       -2.8098865282538155 11.158371227212404
000270 48 bc 3c 82 6a 03 13 40 4a f6 eb 43 fc 1e 25 c0
       4.753335986096381 -10.560518381647075
000280 38 c9 6a 0c 5e bb 11 40 db 8f f7 21 6b 9b 1c c0
       4.432975954072667 -7.1517758662557425
000290 1c c7 e8 19 f4 3e 2b 40 de 45 00 85 20 51 32 40
       13.622956094422584 18.3169024587313
0002a0 3c be 40 59 c1 91 14 40 aa 36 34 43 6d 8d 1c 40
       5.1423391290441565 7.138112115918981
0002b0 0b 92 63 b0 9c 7e ff bf 76 3b 08 3c 25 ab 0a c0
       -1.968411149043393 -3.3335671129238404
0002c0 f8 e3 cf 09 06 f7 32 c0 cb 58 fa 12 93 34 eb 3f
       -18.964935887579458 0.8501677866613816
0002d0 34 b5 50 06 98 85 c1 3f f5 e7 e6 c2 8e de 31 c0
       0.13688946064341112 -17.869365865109973
0002e0 fb 20 1f 3f 93 3d 19 40 82 86 9f 88 16 51 fa 3f
       6.3101320135831385 1.644796880420842
0002f0 7a cc 9d 8a dd f0 31 40 09 96 1b 83 44 f9 37 c0
       17.940880454564173 -23.9737016622876
000300 bc dd 5f 4e 13 a1 16 c0 c9 cd 5e 07 b0 19 29 40
       -5.657300209618764 12.550171118090377
000310 1e 92 92 6c 2b 9c 09 40 64 70 11 63 61 b9 2d c0
       3.2012546999196863 -14.862071128729617

157075 f8 [10, 10]
000000 5d 12 f2 e4 a0 aa 22 40 90 8b 8a 25 84 4f 33 c0
       9.333258776235363 -19.310610147785667
000010 fa c4 ee 48 9f 7e 21 c0 b2 f8 bf 20 22 ee e5 3f
       -8.747308997294102 0.6853190078397999
000020 37 97 9e 9c 3a 41 07 40 f0 6b eb b3 5d 47 c0 3f
       2.9068500743768726 0.1271779182924031
000030 96 5b 4e 72 fd c9 12 40 0d a3 a4 e2 21 6b 1f c0
       4.697255884201601 -7.854621449755325
000040 37 41 1f 01 24 35 39 c0 3d 85 8d c0 af ae 22 40
       -25.207580633287957 9.341184632564017
000050 6a 19 b3 b0 81 10 24 c0 39 bf 0a 48 c9 5e 18 40
       -10.032239457953171 6.092564702659552
000060 45 bc 73 ea 3a 27 2c c0 a0 ea 77 63 a3 15 31 c0
       -14.076621367099628 -17.084524361397257
000070 cf 31 0b 70 b6 6d 10 c0 44 0e 0c d7 c1 77 26 c0
       -4.107141256984007 -11.233900757047316
000080 78 a1 77 cf cf 24 ef 3f d1 db f2 c6 04 fd fa 3f
       0.9732436229797221 1.6867721339638033
000090 b7 9f 1f b5 0c 13 29 40 2b 3b ef e2 7b c7 f4 bf
       12.537206325636232 -1.2987021317127965
0000a0 16 b1 57 bb ae dc 07 c0 89 2a 62 04 cc a8 1c c0
       -2.9827551494728466 -7.164840763560854
0000b0 01 65 80 0a b5 13 09 c0 b8 be 30 f2 32 dd 22 c0
       -3.134622652095118 -9.432029312563245
0000c0 4a 22 09 61 7b 52 22 40 2f e8 3e f7 af 65 32 40
       9.161097557415946 18.397216275079867
0000d0 6b c3 68 3b 94 ae 00 40 18 72 48 55 01 e4 10 c0
       2.0852436677309263 -4.222661335512861
0000e0 6c 72 41 38 74 52 2f c0 4c a2 0e 3e 76 05 15 40
       -15.661042936314708 5.255333871501147
0000f0 fe 85 5d c8 88 ed 0b c0 a5 06 43 63 49 23 21 40
       -3.4909835485020713 8.568919279033546
000100 54 ff e0 8f 88 b4 f1 3f e6 dd fe 45 8f da 27 40
       1.1065755481976867 11.926874339448613
000110 55 4c 03 09 9f f3 0c 40 db b8 1b ff a1 fc 1b 40
       3.618955679333832 6.996711717669508
000120 1b fe 06 e9 01 3d 16 c0 55 c5 08 f5 bb 00 31 40
       -5.559577599574847 17.002867998734775
000130 02 30 c2 30 db d6 08 40 bc 28 fb 59 2a a6 e6 bf
       3.1049102601300556 -0.7077838666384859
000140 b6 0e 8c f1 39 39 d0 3f d0 91 bf ec 3b 05 d3 bf
       0.25349281872352536 -0.2971944629664707
000150 c0 21 62 28 36 05 1a c0 94 b0 2c d9 60 48 21 40
       -6.505089407910816 8.64136389418153
000160 43 40 52 da 67 5e 25 40 9d 1d ce e1 86 c4 13 40
       10.684386084118279 4.941920784192374
000170 4c ae fc 3c 09 d6 26 c0 2c 2e 0a 94 23 9b 08 c0
       -11.418039232106047 -3.075751453934364
000180 b2 3c e2 11 e0 de 1a c0 e3 1d 38 6c 1a ce 25 40
       -6.717651633675972 10.90254533944148
000190 e7 f2 04 bb 01 b6 1f c0 90 bc f1 1a a5 ef 2a c0
       -7.927740976502469 -13.46805652809988
0001a0 30 9e 0a 92 e6 ed e2 bf 93 30 0a ec 49 45 34 40
       -0.591540608632334 20.270659210670214
0001b0 29 d9 0f 6b 6b c4 10 c0 25 9f 5d ba 95 a9 23 40
       -4.191816017954161 9.831220458916116
0001c0 9f f2 70 67 22 2b e1 bf e8 0d 1b b3 24 df 32 c0
       -0.5365154285751322 -18.87165374193674
0001d0 a2 2a 5f a6 e9 02 22 40 e9 6e bc 6e c9 a8 fe 3f
       9.00568885719014 1.916207726061595
0001e0 00 ad 47 50 31 c9 c3 bf 60 4e 2a d3 df b8 11 c0
       -0.15457741184159346 -4.4305413240977884
0001f0 ac 43 42 db 74 b6 27 c0 33 c5 20 f4 bd 12 1a c0
       -11.856360294188413 -6.5183027405740175
000200 85 8a 24 af 5d 18 eb bf c4 37 89 6f 89 fd 1f c0
       -0.8467243595844854 -7.997594588041412
000210 2e 32 ff 57 19 d7 21 40 6a d1 9f 2e db e2 ef 3f
       8.920115232374055 0.9964424048071525
000220 59 7e 92 9c 16 a9 35 c0 c8 b2 7d 0f d2 61 09 c0
       -21.660501275792146 -3.1727639398799035
000230 34 d6 db 44 bd c3 1e c0 a0 9e 7a 31 6a cb 0f 40
       -7.691151691358346 3.9743236413522283
000240 33 f8 7c 5d c0 6a 22 40 16 06 5b e6 69 30 11 c0
       9.20849887991435 -4.297278975778246
000250 fe 9c 31 92 e0 5f 29 40 30 e4 01 d8 bb 0e 30 40
       12.687260216289811 16.057553768598325
000260 63 fd e5 d2 65 a7 15 c0 28 25 1d 9b e0 34 11 40
       -5.413474364554847 4.301638053563956
000270 88 4a 4c 1b df 5d 24 40 ec 5e 34 e2 67 1a eb 3f
       10.18334279352463 0.8469733636911463
000280 d4 6c e6 22 19 4f 19 40 83 21 b6 c5 5c 89 0a c0
       6.327244324983628 -3.3170714803893033
000290 00 e9 77 68 03 b6 17 40 81 c1 d1 69 b4 61 ff 3f
       5.927747375792251 1.9613536962097842
0002a0 50 04 b0 bf ed 20 1b 40 ad 98 b9 8c 3b bf 0c c0
       6.78215693961927 -3.5933753008021854
0002b0 3b b7 b2 1e 45 74 05 40 bb d1 1f b9 59 e8 26 c0
       2.6817724607743947 -11.453809533247172
0002c0 59 06 b4 77 b8 0e 26 c0 76 87 ed 07 92 e4 d8 bf
       -11.028751126027759 -0.38895083212093284
0002d0 9a 4b 52 dc 57 53 34 40 97 1e c6 f9 0e 92 02 c0
       20.32555939683116 -2.321317626341464
0002e0 16 ea 62 20 57 1f 05 c0 ec 9f d4 5d c7 e2 19 c0
       -2.6403028993784217 -6.4714636479402365
0002f0 9f 5e 30 a5 82 18 1c 40 aa 7a 3d cf c8 8d 10 c0
       7.02393587215161 -4.13846134007205
000300 31 23 15 27 b8 ba 26 40 f4 88 d9 a2 95 10 fc 3f
       11.364686223345048 1.7540489541357234
000310 db 33 6c 0d 14 2c 32 c0 af 3f a7 4d 1c ee 32 c0
       -18.172180975834504 -18.930119374592035

31415 f8 [10, 10]
000000 2e 79 58 9b ba 9e e0 bf 81 50 16 20 10 1b 2a c0
       -0.5193760904401523 -13.052857401584562
000010 50 d3 c0 89 a3 44 14 c0 2b b4 10 7f 63 d1 14 c0
       -5.067030098337298 -5.2044811109490565
000020 c4 a5 73 e9 28 28 21 40 3a c2 b1 00 88 29 27 40
       8.57843713318551 11.581115743350086
000030 da ce 55 7d 69 f8 fb 3f 4f dd 3a f1 d9 a2 26 40
       1.748147477713181 11.318069017825705
000040 61 f4 f1 b1 b1 bc 19 c0 0f 15 0b af 93 2a 28 40
       -6.4342716030051585 12.083157987692656
000050 70 82 71 38 10 c6 29 c0 2f 2d 09 89 97 d5 25 40
       -12.886842502456801 10.91717174756067
000060 93 0f a7 f1 91 e6 23 40 e0 9d d5 cb 62 21 1a c0
       9.950332214015168 -6.532603440201882
000070 84 1a ac c6 e7 7d 28 c0 4d 94 ba 56 96 30 31 40
       -12.245908936032045 17.189793987800204
000080 04 f4 b2 72 ea b0 03 c0 ac 51 e8 f1 42 25 f2 bf
       -2.4613846741544894 -1.1340970468055316
000090 62 f7 f7 1c fd 43 24 c0 65 8a b0 e4 05 6b 21 c0
       -10.132790475148514 -8.709029337454192
0000a0 95 ac 54 1c 4c 81 05 40 9d 87 ee cb 8d 9d ff 3f
       2.6881334508266925 1.9759653059086084
0000b0 b5 de 28 aa 61 39 16 c0 d3 7d 6c 5d e7 97 17 c0
       -5.556036623711113 -5.898343524691387
0000c0 fb b7 d3 96 2d 4a 31 40 be fd b6 14 b5 8c 16 c0
       17.289758135499124 -5.637409518879791
0000d0 06 6a 4f cb 9d d6 14 c0 31 d9 a8 c5 24 a3 30 c0
       -5.209586312028938 -16.637279847834353
0000e0 2f 61 52 3b de 34 1d c0 e8 6f bf 87 d3 34 f8 bf
       -7.301628996756604 -1.512897043480729
0000f0 1d fa fc a1 1b d2 38 c0 1a 6e 41 4e 15 c2 11 40
       -24.820734142553295 4.439534399741683
000100 92 ea 46 01 be 45 25 40 28 e4 0d 94 47 5e 06 c0
       10.636215248019003 -2.796034962343146
000110 be bd 9c b5 7b e5 13 c0 3d b5 63 6f cb ad 0a 40
       -4.974104726497385 3.334860677938791
000120 12 39 03 07 8f 14 14 c0 c2 e1 54 da 5e 39 21 c0
       -5.020076856204712 -8.612051794873768
000130 28 7b 6f 63 cc 16 9a 3f 6f 05 80 aa 7c 1a fa 3f
       0.025477593964633588 1.6314665470275391
000140 0f e7 bd 6c ed db f5 bf 72 19 88 ea f1 a3 13 40
       -1.3661932227827867 4.9101025243347625
000150 f2 49 d2 42 21 47 ec 3f 44 bf 88 1c 3c 80 f8 bf
       0.8836828522783533 -1.5313073267570454
000160 e6 ca dd 70 a4 25 18 c0 7c 9d 99 e0 ec 48 1e c0
       -6.036760104691643 -7.571216115356375
000170 77 e3 00 50 23 64 e5 bf 80 b6 2a 8b 0a bf 04 c0
       -0.668473869568614 -2.59328182911014
000180 67 80 29 05 97 2e 0d 40 19 76 b1 c1 20 c0 f2 3f
       3.6477489856043124 1.1719062391415547
000190 a3 10 db d4 dd cc 24 40 dd 69 af f4 4c 91 21 c0
       10.400129939786273 -8.78379025117186
0001a0 94 01 06 10 10 45 f6 3f fc a5 fb 12 a8 dc 27 40
       1.3918610216061085 11.93096980401878
0001b0 ff 6f b2 19 bf 60 1c c0 44 e2 26 bf 7a be 2e c0
       -7.094478990093193 -15.372030232903064
0001c0 1d be 96 7b 82 e5 32 c0 93 82 ca 03 aa b6 1e 40
       -18.896522259046936 7.6783829300262765
0001d0 3c f4 8c 24 bb 62 12 40 05 1b ce 10 b5 34 20 40
       4.59641701803508 8.102943921241158
0001e0 ad 10 8e 11 d3 b9 1b 40 98 02 5d 06 73 e7 27 40
       6.931469225212067 11.952049445012833
0001f0 5c a7 e7 6d 4f fb 1b 40 46 f0 94 15 de 2c 36 c0
       6.995420186294577 -22.175263737546878
000200 16 0c cb 4e 88 d5 30 40 4d 4b 52 e5 57 95 0e c0
       16.834111141750405 -3.822921554159086
000210 98 01 2d a6 38 7c 25 c0 e6 b4 23 b3 dc c7 02 c0
       -10.74261969851868 -2.3475889201423454
000220 f1 fc f5 d8 12 f0 28 40 04 2b b0 53 47 7f 1f 40
       12.468893795039977 7.874295528056567
000230 2f 80 58 20 b4 4a 22 c0 80 8c b4 be fd 82 04 c0
       -9.14590550499278 -2.5639605425690775
000240 c4 16 aa d8 e8 c3 10 c0 33 db 06 4a 7a 8f 01 c0
       -4.1913179258169215 -2.1950574668257103
000250 b7 da eb a5 2d 57 11 c0 47 d0 28 65 b3 43 f5 3f
       -4.33513507129708 1.3290285064258727
000260 38 9e d3 36 b8 12 13 40 83 10 ff 75 9b 51 07 40
       4.768280846277371 2.9148472994293697
000270 24 6a 37 fd 25 59 04 c0 d0 59 bc 9b 70 49 d9 bf
       -2.5435294897590826 -0.39510741432732477
000280 67 42 a9 e8 8b e6 2d 40 18 9d 8b f8 cd 72 16 40
       14.950286169683023 5.612113841554013
000290 d5 6a dc 14 74 06 22 40 ca a8 b7 2b 68 de 28 c0
       9.012604381472025 -12.434388509911873
0002a0 5e 51 cf 5e cd a0 f9 bf 05 a0 2f 37 d6 23 21 c0
       -1.601758356429023 -8.569993710101707
0002b0 3b 44 5f 6e 0d e0 33 c0 fa 95 99 0d c3 73 f7 3f
       -19.875204942949704 1.4657621890304413
0002c0 9e b3 de 6f 54 a3 1e 40 a9 7f 0b 67 c1 4d 38 40
       7.659501789062146 24.303732338244718
0002d0 25 83 dd 6e e1 25 25 40 20 8f 0b f8 b1 50 1f c0
       10.573985542812418 -7.828803897576819
0002e0 c5 4e 7d 46 b8 14 30 40 c2 8b 03 11 11 a3 34 c0
       16.080936818688105 -20.636979163518625
0002f0 34 da 4b a5 24 6a 13 c0 97 89 00 34 08 5a 23 40
       -4.853655417208348 9.675843834939583
000300 57 8f 0f a0 b0 6d 19 40 04 8b 06 df 98 ac 1a 40
       6.357119084310248 6.668551907324176
000310 3c 89 fa b9 e3 29 14 40 39 ba 84 e8 3e 83 07 40
       5.0409077700772364 2.9390848317628095

5200 f8 [10, 10]
000000 db 07 4a 06 37 2b e0 3f 50 21 2f 29 2b ff 0d c0
       0.5052752611957162 -3.7495940415866826
000010 e7 1a c5 b2 60 01 fb 3f f7 49 c1 40 aa 32 01 c0
       1.6878363593293046 -2.1497387942301844
000020 5b ca 78 46 a1 1d 18 c0 8c f2 d5 64 5c 26 f7 bf
       -6.028935528871979 -1.4468654574294844
000030 30 fb da cd c7 f9 25 c0 e7 bf b1 09 cc 6f 27 40
       -10.987852509480575 11.718353560398056
000040 e8 dc de cb 30 d9 20 40 4c 53 1d 27 ba 9f 1f c0
       8.424200411753603 -7.9059835540436545
000050 82 e0 aa 24 7b ad 0a 40 0a 84 97 cc 65 ba 12 c0
       3.334707533325912 -4.682028958080091
000060 1e fa 28 8d 4c c8 12 40 58 d1 38 cb 67 03 c9 3f
       4.695604520441092 0.19541642592379094
000070 57 ff d1 74 01 95 05 c0 da 08 db c0 23 1d 20 40
       -2.6977566839777114 8.056913401353473
000080 16 a2 6e ab 91 68 13 40 3c 1f 28 51 b9 e5 0e 40
       4.8521181856417765 3.862169870411803
000090 bc f3 5d 38 3d d3 19 c0 22 5c b9 c6 cb 76 34 40
       -6.456288223966961 20.464046879056816
0000a0 38 8f 34 a4 16 79 17 40 95 32 66 d5 b4 8f 3b c0
       5.868250432689642 -27.561353051615317
0000b0 56 1d 08 9c 37 2f 17 40 d3 1c e5 13 81 e3 09 40
       5.796110570903087 3.2360860399527183
0000c0 48 83 9b c9 84 18 1d c0 69 c4 e7 45 7a 62 09 40
       -7.2739440442245 3.1730847798685784
0000d0 05 c9 c1 c0 77 e6 15 c0 5b 87 ff ad 7a 4b f8 bf
       -5.475066196277344 -1.5184275433352556
0000e0 8b de e3 71 21 1f 17 c0 e6 ed 2a 90 76 ff 13 c0
       -5.78040101960472 -4.999475720043369
0000f0 b4 f8 ba 4d 11 38 27 c0 04 ad 99 de 94 55 ec bf
       -11.609507016252202 -0.8854469630872761
000100 3a bc df 3a 6e c9 1c 40 c3 01 87 14 9f 0f 11 40
       7.196709556489674 4.265255280246893
000110 26 4e 19 d7 8b 35 00 c0 b7 ec cb 43 3d 3f 0e c0
       -2.0261456303212695 -3.7808785721404905
000120 df ee 15 40 4e f7 15 40 7d 48 13 81 9e 21 22 40
       5.491509438837709 9.06566241608038
000130 5c 93 be 80 81 3b 33 c0 34 b2 75 95 06 45 1b 40
       -19.23244480755544 6.817407927807427
000140 a2 35 12 2e bc 1a 27 40 09 7e b2 b8 a7 62 32 c0
       11.55221694919857 -18.38537172658656
000150 10 35 f4 88 d3 9c 24 c0 b8 af c0 26 7e ce 02 40
       -10.306301383791407 2.3508265521577094
000160 c6 c0 c8 ae 02 cb 1e c0 c7 dc 2b 58 0c c1 23 40
       -7.698252421381943 9.877047305445002
000170 1e 13 ff a5 2c 52 31 c0 a9 1f 3b 3b f7 1a 17 c0
       -17.32099378087434 -5.7763337378345705
000180 57 a8 1b af 74 c8 32 c0 b5 36 03 7e eb ae 32 c0
       -18.783030456783617 -18.683280826363177
000190 27 0e 0d cb 08 12 16 40 b3 da 50 c3 eb 25 09 40
       5.517611668273765 3.143516088395097
0001a0 14 48 3f 65 64 c4 2c 40 3a 40 06 34 1d 4a 13 40
       14.383578456854629 4.822377026444935
0001b0 ee 3f 98 aa 89 12 2f c0 bc 0d 9e 04 a8 81 f0 bf
       -15.536206561169788 -1.0316543751113008
0001c0 ef 8b 6c 77 ea 5a 29 c0 b4 0b fd ef 8f f3 13 c0
       -12.677570087433166 -4.987853765315709
0001d0 7b e9 c2 57 bb 16 2a c0 88 d5 d2 72 fc 74 29 c0
       -13.044398062270139 -12.728488529430948
0001e0 52 88 80 ca 5c 84 fe 3f 5c ce 84 3f 17 ee 30 c0
       1.9073150549161437 -16.930042238162386
0001f0 ae 11 0a 63 b5 4f 10 40 48 d0 c1 b1 5a 2b d0 3f
       4.077840373506133 0.2526461349400546
000200 15 89 7a f5 6c c5 30 40 2b 0b 07 a6 25 c6 24 c0
       16.771193830886734 -10.387005985603158
000210 cf 50 75 f5 d2 a9 39 40 e6 00 12 63 59 ab 20 40
       25.663375226155775 8.334666343639082
000220 48 95 1b 6a dc ca dd 3f b0 4c 9a 4d 9a 72 08 c0
       0.4655066524704421 -3.0559583723748673
000230 e6 be 77 59 bf 39 de bf eb 42 fe 04 28 b8 11 c0
       -0.47227462517819985 -4.429840162295231
000240 2e d8 d3 ce be c9 1f 40 29 f7 d0 22 7c e8 05 c0
       7.947016936950645 -2.7385180206319046
000250 0a 4d 61 7f 6e 94 25 c0 a0 5d 72 df d7 56 91 3f
       -10.7899055296207 0.016932843220812566
000260 58 33 a6 da 48 a3 06 c0 10 d5 63 b1 54 4d cf bf
       -2.8297288019152056 -0.24454744969958897
000270 e0 b7 e7 f5 2f 5b 96 3f 3d fb 52 8f 33 dd 14 40
       0.021832227119311542 5.216016997756751
000280 f5 f2 96 46 f9 4d 02 c0 a3 e2 8a a8 4a b1 fa 3f
       -2.2880731119934077 1.6682840903942313
000290 88 97 e4 08 0f 70 24 40 b6 51 2c c6 81 a8 17 40
       10.21886470594815 5.914557548956898
0002a0 bf fc b2 42 22 64 32 c0 c1 ad b6 d3 92 c5 19 c0
       -18.391147774408406 -6.4429429130790945
0002b0 cc 30 77 56 2c 07 10 40 ef 88 a6 27 ef a6 33 c0
       4.007005072617357 -19.65208671394151
0002c0 b8 e9 8c f1 d8 ed 21 c0 cf 9b 14 a7 39 91 35 c0
       -8.964545772982873 -21.56728595975056
0002d0 aa 45 46 0a 71 ab f0 3f 50 6f 58 ae 2d 79 ea 3f
       1.041855850348251 0.8272922902283231
0002e0 2f 2c db ef 09 a8 33 40 66 1b 03 3f f6 7a 21 40
       19.65640162564176 8.740159958962703
0002f0 4a 53 10 0a 2a 7d 36 c0 c6 06 36 a6 17 63 08 40
       -22.488922718988114 3.0483849511373107
000300 d6 28 a1 32 cd 5a e2 bf 7a 36 fe 00 a9 fb 0a c0
       -0.5735841740472789 -3.3728809430675115
000310 a2 ef 14 6f 96 39 22 40 22 5d 0e 20 bc e5 01 40
       9.112475844674751 2.2371752266295895

62830 f8 [10, 10]
000000 1e 90 36 82 48 26 02 c0 2a 65 60 fc 60 ae 21 40
       -2.268692986765031 8.840583693282117
000010 b2 95 77 9e 0c e8 20 40 fc 9f 6d 66 4b b1 12 40
       8.453221275422809 4.673139191094375
000020 05 87 21 ab c5 21 0a 40 4c 64 9e e6 93 ee 2f c0
       3.2664903039557225 -15.965972143969474
000030 9d 9e 71 47 c9 20 27 40 9f 7c df 66 78 ba f1 bf
       11.564035637492731 -1.1080249803997402
000040 98 90 b4 4d 5d 58 17 c0 f6 f6 d2 4b 32 d1 1c c0
       -5.836293424745371 -7.204293427230132
000050 65 b9 32 3a 13 ce 14 c0 91 27 83 1a 0c 28 09 c0
       -5.201245221467933 -3.1445543357157892
000060 6c 84 c2 dd 61 5e 09 40 07 b8 ec 42 be 82 19 40
       3.1710851025568925 6.3776789147359585
000070 2a 9d 81 e5 64 4c 1d 40 6c 25 e0 3e 20 9b 23 c0
       7.324603639636999 -9.802980389463038
000080 aa 2b 8a fc bd 93 1c c0 ba c0 fe 9e 2f 78 1e 40
       -7.144279428418409 7.61736915998352
000090 11 97 26 55 12 0f 02 40 f5 56 d7 e8 3f cb 01 c0
       2.257359185447861 -2.224242991515775
0000a0 40 35 bf d3 93 a8 14 40 e0 40 41 c0 e3 58 00 40
       5.16462641577283 2.0434031505502475
0000b0 af 35 80 00 a9 e4 18 40 0e cc 4f b5 db 90 2d c0
       6.2233009413006775 -14.7829262409123
0000c0 a6 39 87 71 f5 74 22 40 43 f8 f5 9b b5 3d 18 40
       9.22843508506487 6.060263096702388
0000d0 6c c4 bf 6c 6d b1 d7 3f 32 cb 3f 4f bd 6b 16 c0
       0.3702043115618554 -5.605214346188221
0000e0 7a e6 ef f5 3a 1d 0a 40 c1 a6 ba 9e 8b 9f 21 40
       3.264272614844967 8.811612091335862
0000f0 7e c8 55 83 9a 3d 17 40 40 1d 95 1b a0 2e 62 bf
       5.8101597329242605 -0.0022194983581901584
000100 75 d9 00 15 d9 65 29 40 19 61 1a 8a 6f bd 25 40
       12.69892182956094 10.869991603584412
000110 96 26 e7 4f d0 78 32 c0 31 23 56 d6 ae b9 30 c0
       -18.47192859071091 -16.7253240547463
000120 73 78 04 69 ed 22 11 c0 4d 86 d5 44 17 8c 27 40
       -4.284108773134096 11.773615027489678
000130 d0 42 37 a2 d2 02 29 c0 bd 73 1c 43 63 b4 30 40
       -12.505513257261015 16.70463962025291
000140 5a fd 4c a3 97 c7 14 c0 d1 4a 4e 35 0f 66 1f 40
       -5.194914390157772 7.8496673897777365
000150 ce c9 0a 7a 12 34 28 c0 95 7d 1a b4 c2 d3 1c c0
       -12.101703466240817 -7.206797422520499
000160 0c 21 31 07 0f 88 21 40 45 6a 9f c0 d6 4a 08 c0
       8.765739655253604 -3.036542420258487
000170 61 c8 cd 60 c0 eb 07 c0 9c 81 b7 f2 42 34 25 c0
       -2.990113025932303 -10.602073273564024
000180 76 4e 96 5d f0 a0 29 40 11 c2 7e d3 a7 c2 34 c0
       12.81433384380146 -20.76037332386665
000190 e6 3e 20 3e c9 e6 1e 40 7d 71 ac 7a 19 d3 14 c0
       7.725377054899331 -5.206151882910828
0001a0 98 15 eb 12 4d 6c 2a 40 b6 b0 a3 31 1f ea 00 40
       13.21152552718813 2.1143173101500805
0001b0 bd 49 81 ef 8a 3f 1f 40 44 73 d6 98 ad a1 21 c0
       7.812053434625736 -8.815777565172205
0001c0 89 66 c1 5f 9d 28 07 40 07 9d 1c 28 09 8f 3c c0
       2.8948314171692044 -28.558733469949427
0001d0 f0 2d 7e 5d 9a e4 bc 3f 90 9f 14 17 97 5e 27 40
       0.1128632047895548 11.6847464764285
0001e0 30 22 fd 78 46 fd 2b 40 2a 04 23 03 40 6e 12 40
       13.994678288364497 4.6076660623666985
0001f0 0d 3f e1 55 bf b7 2a c0 c6 50 5f 0e 71 68 12 c0
       -13.358881648774991 -4.601993774955366
000200 2b b2 b5 53 51 34 15 c0 6c 1c aa e5 d6 d8 1b c0
       -5.301091487850992 -6.961757267482522
000210 b8 0b a7 d6 b8 f9 38 c0 fe b7 65 3f 35 44 16 40
       -24.975476661474858 5.566609373649042
000220 da ec 80 25 92 5c 20 c0 fa bd 17 44 08 fb 07 40
       -8.18080250929636 2.997574359869529
000230 ea 6d 16 cf 6b 10 09 c0 6c 0d f5 cc 18 d4 e7 3f
       -3.1330181292266746 0.7446407321043984
000240 1f b2 7e 2e 7e d5 04 c0 58 41 56 47 73 88 01 c0
       -2.6042445785917745 -2.191626126594354
000250 3c 65 89 58 45 57 16 c0 10 12 3c 66 86 05 06 c0
       -5.585225470910981 -2.752697752674301
000260 6f cf b4 20 24 92 1c 40 30 79 83 ef b9 ab f9 3f
       7.142715941463265 1.604425368881106
000270 3b 7f a4 bb b5 49 22 c0 7d 64 91 d8 be a4 29 c0
       -9.143964637594413 -12.821768539188492
000280 8b aa 8d a5 62 b4 1c c0 f4 5e 8c bc 94 45 04 40
       -7.176157557269685 2.5339750986421397
000290 35 b7 ba 97 54 65 21 40 33 51 cf d4 bf 50 17 40
       8.697911016027868 5.828856778291356
0002a0 79 40 4e b2 2b 0b 2e c0 f9 52 d9 cc cf 79 14 40
       -15.021817752887943 5.118956757320796
0002b0 7e 0c 25 20 7c 74 23 c0 32 a7 79 f9 9c 03 07 40
       -9.727509502909239 2.8767642488718588
0002c0 15 5b 8c ff 17 52 26 c0 84 58 39 61 ed 92 d8 3f
       -11.160339342005992 0.3839677285626595
0002d0 e2 e8 c1 41 76 e1 29 c0 ec 2e b9 8d 72 f8 04 c0
       -12.940355353279703 -2.621312243665548
0002e0 0d 2c 3a 4a 84 ba 16 40 14 1d 21 82 4d 00 29 40
       5.682145271111051 12.500591341535745
0002f0 1e a0 d3 7e 8c bb 15 c0 c9 74 31 fd 38 e3 f0 3f
       -5.433153134981721 1.0554742708548466
000300 15 95 28 eb 1b 88 14 c0 ae 70 a5 e2 aa 04 1a c0
       -5.132919000961256 -6.5045581258274705
000310 2b 75 15 75 bb d5 f2 bf 85 12 01 78 46 1c 15 40
       -1.1771807263933833 5.2776125670103555

2674 f8 [10, 10]
000000 80 55 71 54 3c 34 09 40 a2 c4 94 93 99 71 16 40
       3.150505695065192 5.610937410311779
000010 c7 10 aa f6 e3 ee 2b c0 06 e3 a2 9d 30 ed 2e c0
       -13.966582973728135 -15.463261533864635
000020 0f d7 fb dc ad e9 fa bf b1 6a 0e e3 e8 fa 04 40
       -1.6820505745103593 2.622514509084191
000030 a3 c3 7b 27 02 57 2c 40 3b da 88 3a 10 23 09 40
       14.169938310487685 3.1421207974447305
000040 74 ee 34 9c 5e 8a 23 c0 69 09 c8 41 0d 21 12 40
       -9.770253068410263 4.5322771337836025
000050 1f 44 75 1b 6d a1 2a c0 54 9a dd ad 07 2d 17 c0
       -13.315285547318181 -5.793974606180729
000060 01 bc 5a b5 3b 05 20 c0 c5 41 b3 5c 7a 9d f4 3f
       -8.01022116406057 1.2884467717268404
000070 15 17 da ec 35 a1 14 40 00 71 77 92 d0 95 23 40
       5.157432270823638 9.792606904106378
000080 14 2b 36 20 4c 18 37 40 45 bf 6b 5a 2c fe 2c c0
       23.094911587929417 -14.496432138111809
000090 cf 3e 58 df 1a 73 35 c0 17 d9 b2 67 60 42 2c c0
       -21.44962879089763 -14.129641762334854
0000a0 7f e8 b4 1a c6 bf 27 40 0a bd 08 ba 92 fc 26 c0
       11.874558291038054 -11.493306935850814
0000b0 61 73 ae a6 c9 99 29 c0 6d b9 72 b2 9f 01 e6 3f
       -12.800366600795032 0.6876982198062201
0000c0 d7 f3 f6 1a ad e4 35 c0 88 18 00 76 44 37 cc 3f
       -21.893266377726686 0.22043662797677066
0000d0 2c d9 98 e6 bb ea 0b 40 61 19 74 a9 3f 7a 03 40
       3.489616204776345 2.4346917379909176
0000e0 ac db 99 90 4a 66 30 40 6b 79 b0 82 db 4f 30 40
       16.39957526928235 16.31194321449713
0000f0 c6 c5 30 a2 ca 29 1c c0 90 46 73 80 46 a3 16 40
       -7.040812048174706 5.659448630367152
000100 07 64 a9 ef 97 c7 11 40 18 06 48 31 f8 8d 0e c0
       4.444915528024473 -3.8193210458855553
000110 df 22 9b 5f 60 1c f0 bf f7 62 c5 ce ec 66 29 40
       -1.0069278463944824 12.70102544936661
000120 3a d7 27 ab e3 f1 22 c0 94 c7 e7 d0 a2 37 fc 3f
       -9.472440098393793 1.763583007847477
000130 7f ee df c7 6f 6e 04 c0 70 d2 ce 6c 5b d2 cf 3f
       -2.553924142381049 0.24860709011922522
000140 02 a4 21 aa e3 6d 13 c0 42 35 69 f3 a1 3e 2f 40
       -4.857313783934844 15.622329336731699
000150 15 4b ac 53 f8 65 17 40 f9 8e 59 02 78 22 28 40
       5.849580104247043 12.067321847374375
000160 25 c2 11 b9 89 44 10 c0 6c 4f 4a 95 99 9a ce bf
       -4.066931621273885 -0.23909301557125262
000170 aa b8 f3 0a 1c df 1d 40 61 33 48 0b 5b 2b 27 40
       7.467880412221499 11.584678986133158
000180 9e 82 14 81 a5 22 16 40 39 14 53 38 83 88 26 c0
       5.533834473492474 -11.266626129285315
000190 fa 31 75 28 62 81 42 c0 a0 60 2d a0 fe b7 b1 bf
       -37.01080804560111 -0.06921378527238398
0001a0 fe 4b 4c 75 4a 4e 15 40 2d 03 c3 e4 e9 c2 fb 3f
       5.326455910474577 1.7350863395697147
0001b0 7b ac 1b ff 53 39 f3 3f 53 71 3a 53 d9 ca 34 c0
       1.201496120944994 -20.792378618019324
0001c0 16 2b d2 7a 75 5d 1f c0 f2 fd 70 bc 74 34 30 c0
       -7.841268462255149 -16.204906251512462
0001d0 95 09 41 b8 b7 a1 2a 40 c0 11 f0 13 dc 1a c4 3f
       13.315854795397891 0.1570696923591992
0001e0 b2 3d 3a 7c 41 d5 40 40 ae 66 2f 80 71 3e d4 bf
       33.66606095165061 -0.3163112403686722
0001f0 81 c1 6e 8d 4b 3e 31 c0 99 eb 48 fc d4 25 22 c0
       -17.243340339221962 -9.073890575314907
000200 ad a5 97 6e a3 2d 19 c0 f7 c2 c2 7d 24 65 24 c0
       -6.294568756109055 -10.197544031166656
000210 c0 ae 6c c5 f7 ee 25 40 b5 9e 69 79 2c 03 1a c0
       10.966734094159051 -6.503099343368082
000220 5d 9c 32 00 08 0a 20 40 78 96 52 32 98 87 2e c0
       8.019592291048122 -15.264833042699351
000230 7b 89 54 35 4a 48 22 40 84 a4 64 c7 4d 69 33 40
       9.141191164559805 19.411343061514813
000240 86 cd 96 36 8f 8f 03 c0 e0 2c dc 10 23 bf 24 c0
       -2.4450973763247843 -10.37331440627753
000250 5d 95 b1 7c d3 04 23 40 d3 bd 62 7d c5 cc 2f 40
       9.509426018407504 15.899944227507978
000260 96 16 e1 a6 ce 55 12 40 3e 95 4e ec 9c 4e 11 40
       4.583796126831336 4.3267704890216105
000270 45 28 07 dc ec 9c 31 c0 ee a6 e2 7b 98 89 15 40
       -17.61298918890704 5.384370742520089
000280 4c 34 2b 57 ef 84 21 40 70 93 21 cb d7 3b 1f 40
       8.759638523124657 7.808440374302208
000290 7a 7e e3 da dc 7e 10 40 1a cb 7b f7 46 ad 30 c0
       4.123889370093474 -16.676864116404523
0002a0 9c de 1c 63 c3 ba 12 c0 ac 7d ab 2f 06 22 31 c0
       -4.682385967862185 -17.132906894081017
0002b0 81 01 78 40 80 d1 2d 40 92 10 20 ac 0f 9c 17 40
       14.909181608819155 5.9024035353251225
0002c0 47 db c7 80 12 bc 10 c0 63 96 97 40 3e 08 06 40
       -4.1836643335325965 2.754024986864168
0002d0 00 21 47 6a 89 59 0d c0 fd ae bc 19 75 0f 12 40
       -3.668719129844362 4.515095140591936
0002e0 c6 5b 6a 89 a8 be 28 c0 53 87 b0 2b 5f 6c 2a 40
       -12.372379583581175 13.211663594530966
0002f0 8e 08 ca d5 3c 47 0b 40 ea d2 62 df 23 cb 15 c0
       3.409784002521582 -5.44837903061555
000300 55 53 79 32 f2 58 28 40 b9 07 d6 29 69 b0 05 40
       12.17372281771683 2.7111380833093475
000310 39 29 ae bd 7f 78 1f c0 4d 57 6e 42 ce d2 19 40
       -7.867674793009706 6.45586494253605
