hw1/numpy/442solutions/w4.npz (npz, 14610 bytes, 15 tensors)

2210 f8 [10, 10]
000000 60 a9 00 fe ac ef 12 c0 87 09 9b ce 5b e4 f0 bf
       -4.734058350363142 -1.0557516165286829
000010 72 d2 32 97 b4 a0 fc 3f bc 4c ad 97 8d 0e f1 3f
       1.7892347246353464 1.0660530018692915
000020 3e 26 cb a1 c6 4c 02 c0 90 9b 68 ca ec f1 0d c0
       -2.287488235485198 -3.743127423589108
000030 bd 41 b7 79 ea 30 01 c0 40 18 f4 de 2e ff e0 3f
       -2.148884726433805 0.5311502794800234
000040 29 a8 d4 73 dd d2 0c c0 e8 ac 08 0c 90 85 cd bf
       -3.60296144955375 -0.23063850963203625
000050 5e 78 25 9b f7 61 f5 3f 21 bb 4d db 06 59 0e c0
       1.3364177761464116 -3.7934701092812166
000060 61 06 4b ab d4 20 06 40 7f 26 01 58 a8 52 0a 40
       2.766030634142951 3.2903601527548854
000070 68 b1 77 8d d2 3e 09 c0 d6 0b ae 85 e8 f4 1f c0
       -3.1556750347282794 -7.989168251750888
000080 3b 09 dc 6f f7 d5 08 c0 bf 81 20 0b 5a 8a 08 40
       -3.104475854780643 3.0675545567794127
000090 c0 4d 16 f4 eb 0e 12 c0 f2 ca 81 df 6c 3b c7 3f
       -4.514571966039 0.1815010157912052
0000a0 ea ed bc 83 7a e2 e1 3f c4 68 f2 c6 0b 44 be bf
       0.5588963101394573 -0.11822579962827989
0000b0 40 62 31 9d d1 f1 f0 bf 36 18 28 9a af db ff bf
       -1.0590377941463345 -1.99113426415853
0000c0 f5 c8 3b 20 ed 73 11 40 ea fd d1 ac ab 3b 13 40
       4.363209251069056 4.808272075955282
0000d0 82 de 40 6c 11 87 e7 bf 04 2c 7c 08 1b 8e e2 3f
       -0.7352378000568509 0.5798468747829024
0000e0 44 f9 4e bd bc 24 e4 3f f1 80 f4 14 60 de e7 3f
       0.6294845292502846 0.7458954247740889
0000f0 31 78 d5 91 82 c1 0f 40 59 33 c0 85 1d c0 f3 bf
       3.9694873231192322 -1.234403154815672
000100 40 77 83 8d 34 30 8f bf b3 e2 86 50 d7 13 0d 40
       -0.015228663033152068 3.6346880236781884
000110 74 cd 67 b0 64 79 d9 3f 98 de 7b 25 6b 0a 01 40
       0.39803426005456477 2.13008717808027
000120 6c 2a f9 59 26 62 ff 3f 34 d5 d0 62 38 ce fc 3f
       1.9614623560506983 1.8003467426290856
000130 c6 1c 0b 6b af c8 c4 bf ba ec b7 21 45 a0 10 40
       -0.16237442709664246 4.156513716555475
000140 e8 ef 7c 6c 42 32 01 40 a8 f0 a6 0a e1 60 16 40
       2.1495407558086193 5.594608465613568
000150 04 7b 17 64 be 08 1d 40 47 00 5b 29 34 91 15 c0
       7.258538783963335 -5.391800543002382
000160 52 81 8b bf 5c 87 03 40 9a cf a6 ec 0d 64 f1 3f
       2.441094871945247 1.0869273418620424
000170 a4 af 09 20 23 c7 ff bf 7a b6 88 33 cd 7f fc 3f
       -1.986117482326315 1.7812015545891016
000180 5d ab f3 ec 09 00 e9 bf 0b 54 e4 0d 3c 1a 22 40
       -0.7812547328916072 9.051239427682978
000190 2e c1 d9 07 68 95 e3 3f 98 01 8a 60 42 00 f4 3f
       0.6119880822498425 1.2500633021410064
0001a0 30 3f e4 5e cb 5c 08 c0 cc b9 0c c5 b4 e6 0b c0
       -3.045309773769894 -3.4876494783886525
0001b0 56 02 ab 5d cd ee dd 3f c0 c8 9d 96 2b 4e f0 3f
       0.46770033023134283 1.0190845378352122
0001c0 cc ff 6e f8 fd a6 d2 bf 4c c7 82 70 df 19 b0 bf
       -0.29144238720982396 -0.06289478775832186
0001d0 5b f8 51 14 3f c5 17 40 95 8e 51 32 c7 56 00 c0
       5.942623441222248 -2.0423721247805795
0001e0 fc 89 e8 17 c9 f4 f4 bf 31 dc 60 54 f1 9b 1a c0
       -1.3097620901031624 -6.652287786876557
0001f0 f0 83 17 28 43 90 1f c0 cd a4 6a 99 de 4c 12 40
       -7.89088118213202 4.575067898878115
000200 00 17 bc 1b 25 de df bf c9 b1 72 72 a1 5c 03 c0
       -0.49793365200490314 -2.4202298108341194
000210 be 54 88 9f 42 4b f7 3f 98 4c 4a e8 71 92 c3 3f
       1.4558740836849178 0.15290664522453734
000220 5f b6 ac 7f 40 84 f7 bf 3b 1e af d7 4d 97 19 c0
       -1.469788073281414 -6.397757883132324
000230 b2 cb d1 8c 71 26 0e c0 f8 cc b5 2f 8b 01 e5 bf
       -3.7687712670826494 -0.6564384395445861
000240 ca a9 3d e4 6b 4a f6 3f 94 05 33 34 01 ec f5 bf
       1.3931692996653617 -1.3701183356318767
000250 91 8e b3 61 cd 92 f8 3f be 5c 59 47 87 37 05 c0
       1.535840398450919 -2.6521134924074365
000260 e4 5c 31 6b 2d 22 0d c0 2f 59 bc 83 a0 08 df 3f
       -3.6416881918372486 0.4849015509111209
000270 00 45 1a d9 66 53 e9 bf 5c fd 95 bb 69 40 ee 3f
       -0.7914308777127701 0.9453629173075728
000280 62 94 a4 9f e6 5f 05 40 66 fa 0a f6 74 ca dd 3f
       2.671826598367759 0.4654819872629673
000290 2e e5 4e 70 12 b3 22 40 1c 44 e1 c5 00 51 f7 bf
       9.349750051146284 -1.4572761277852413
0002a0 27 99 94 a7 66 d2 d5 bf 7d 48 84 64 96 e1 1d c0
       -0.3409668575790356 -7.470300264905856
0002b0 f7 06 ad 41 a6 54 18 c0 04 36 bd c3 b4 5e f1 3f
       -6.08266546839308 1.0856216093119437
0002c0 a2 e6 40 bb 82 9b 14 c0 e8 6a de 3d 10 63 fc 3f
       -5.151865888439405 1.7741854111433728
0002d0 c8 bf 99 23 72 38 b8 3f 56 bb 56 ef ca 4b b7 bf
       0.09461129540591096 -0.09100025504333806
0002e0 6c 86 b5 ce 68 84 f5 bf 14 65 bc a4 cc 67 fc bf
       -1.3448265146802454 -1.7753416476246615
0002f0 51 f9 e2 55 30 20 e8 3f 50 36 d7 a8 c4 6c 00 40
       0.7539292981598839 2.0531094732930697
000300 7c 8f a7 51 60 fa 00 40 26 67 56 50 bd 91 02 c0
       2.1222540263424303 -2.3211618687027054
000310 60 a3 97 8a d9 4b c3 bf 92 55 2c 9e fe 1d 0f c0
       -0.15075225131229342 -3.8896458012847654

2600 f8 [10, 10]
000000 b8 51 5f aa f4 d0 f1 bf c5 a8 d4 0b fb ee 00 40
       -1.113514581219631 2.1166897701524214
000010 46 98 47 0d de 5b fb 3f 69 e7 8a 93 d6 97 01 c0
       1.7099285620438578 -2.1991397406354065
000020 0b d7 7e 14 91 b9 fb bf e7 f7 79 07 83 42 e7 3f
       -1.73280437475245 0.7268691202186773
000030 1b ab a2 39 8a 5f 01 c0 98 03 5f 50 77 60 9e bf
       -2.171650362278695 -0.029664863853898632
000040 09 44 d7 2d 26 ec 0b 40 8a 47 99 d0 7a 91 de bf
       3.490307195789232 -0.4776293789956233
000050 78 cd 3f 7b 13 d8 ba 3f b2 cd b0 81 d1 02 fb bf
       0.10485955962194804 -1.688188082317407
000060 7d 5d 58 ac 70 f0 f3 bf 6f d4 cc 78 5b 25 00 40
       -1.2462012035592516 2.01824087500659
000070 eb a1 58 df 2d 5a 0a 40 99 b8 6b 85 4b 92 f1 bf
       3.2940328072474947 -1.0982165538548883
000080 f8 2b 8f 61 f6 a7 f2 bf 57 cb 81 e1 53 69 dc 3f
       -1.166006451693418 0.4439286901680836
000090 4e 75 07 ee 35 e1 0a c0 b9 a3 00 74 28 3f fb 3f
       -3.359966144182784 1.7029194384906374
0000a0 d8 86 9e 2a 36 b3 d0 3f 56 eb 1e ec 29 3b f6 3f
       0.2609382072642865 1.3894442771404178
0000b0 90 6c 4a 5b c0 c6 be bf 00 b2 d8 15 b1 2b 9d 3f
       -0.12022020558144875 0.028486983259584875
0000c0 dc 00 07 aa 5b a3 dc 3f 93 79 01 39 9b 18 25 c0
       0.447470584909764 -10.54805925505642
0000d0 90 94 35 66 3b cc 0f c0 e8 08 d8 9d d7 9e 0e 40
       -3.9747226700879494 3.8275596934846483
0000e0 42 bc 3d 75 05 d2 14 c0 aa 89 79 ac 47 ae 13 c0
       -5.20509894551566 -4.920195288580013
0000f0 cd ab 58 18 86 5d 15 c0 dc ae aa e3 d4 10 08 c0
       -5.3413318447227995 -3.008218554159482
000100 e8 a6 05 c7 bc e0 f2 bf be 1f d6 f5 16 a3 d7 3f
       -1.1798675321865009 0.36932920463049956
000110 44 73 71 66 60 cf fe 3f 7c 4b 27 46 0f b3 13 40
       1.925629043739904 4.92486295332753
000120 c9 d4 fd 72 53 f4 03 40 d3 6b 4e 97 f4 04 0c 40
       2.4942997916901715 3.5024196453864334
000130 91 9c b1 f5 03 e6 10 40 7b dc 0d e2 7a ad 04 c0
       4.224624480214644 -2.5847070370178336
000140 0c 3c 7d 5e 8f d2 fe 3f 26 1a 8c 93 db e7 f6 bf
       1.9264062586769368 -1.4316058887067213
000150 16 d2 1c aa 0e 0d d7 3f c4 38 2a 0b 8f a9 fa 3f
       0.360171953321044 1.6663961826448466
000160 84 c9 bb 9d 9a de d9 bf c5 15 94 eb dc 07 0e 40
       -0.4042116680494916 3.753839340645501
000170 9b 36 58 92 64 01 08 40 c9 d9 f9 16 46 71 ee 3f
       3.0006801064653934 0.9513273667096708
000180 b8 7c a2 1e 13 86 f1 3f 1a c6 f3 14 79 8a 06 40
       1.0952330776852204 2.8176137577909346
000190 92 56 fd e3 0b 7b 07 40 83 dd f1 43 65 06 16 c0
       2.9350812732398674 -5.50624567188004
0001a0 a5 b7 e2 25 7d 50 14 40 e9 da 08 20 43 8a 1a c0
       5.078602401697855 -6.635021687069391
0001b0 d6 d4 4c 18 0c f3 d4 3f 87 2d 9c d5 52 ed 03 c0
       0.327334426622952 -2.490880650356931
0001c0 fa 19 ee 62 45 83 fa 3f 4e 6b b8 a9 22 3b 0f c0
       1.6570485939461137 -3.9038747081189404
0001d0 50 8f 3e 18 b4 31 f2 3f d8 3e 7e 7f 84 e6 f4 3f
       1.1371346423192854 1.306278703708747
0001e0 9a 6e 54 a3 d0 f4 f2 3f 26 2d 32 99 5e 39 07 40
       1.184769285208779 2.90301246342064
0001f0 fe fd 63 e3 4a 2d f2 3f a0 b4 95 a3 d1 7b 03 c0
       1.1360577471203892 -2.4354584484159005
000200 2a 26 8c 15 0f 08 f4 3f 63 0a 94 98 e6 f3 21 c0
       1.2519675103852799 -8.976368682929381
000210 c2 81 e8 5d 86 37 13 c0 b5 77 1d 16 16 6a c5 3f
       -4.804223506275266 0.1672999961837697
000220 ec 05 98 0e e1 59 13 c0 76 24 3e a5 79 b2 0e c0
       -4.837772586849933 -3.8371460828389514
000230 ed 95 3d c2 65 70 fa bf 63 4d b2 4b 2c 25 14 40
       -1.652440794708464 5.036301787145336
000240 75 1f f5 a8 dc e5 0e c0 25 62 82 e7 fe 30 0d 40
       -3.8622372817807737 3.648923691431508
000250 61 9b 87 d2 26 b5 10 c0 0a 81 00 03 c5 fc 16 40
       -4.176905908133308 5.746845290094152
000260 44 9b 92 aa d2 c9 f6 bf 75 f2 6e 91 de e5 f8 bf
       -1.4242731726642015 -1.5561204606048282
000270 d3 c4 30 a6 4a fc 04 40 e5 85 df 16 92 52 f1 3f
       2.6231892570145674 1.08265885290927
000280 22 5f 6f e7 74 3b 00 40 90 71 95 3d 92 bd d0 3f
       2.0290315705168647 0.26157051099814854
000290 9e 42 5c b2 32 0f 0a 40 1f 3b 82 ed 79 2d 01 c0
       3.2574209150701128 -2.147205215012391
0002a0 76 70 6a e8 b3 52 07 c0 b0 3e 90 92 11 4e 13 40
       -2.9153822095377633 4.826238908819207
0002b0 ea 5c 85 52 d8 30 13 c0 8a 7e c4 78 26 5e fb 3f
       -4.797700204267338 1.7104859082682276
0002c0 aa 06 7d b5 b3 50 13 40 e7 94 28 cb d1 a7 02 c0
       4.828810535198196 -2.3319431182632004
0002d0 d2 b3 31 77 51 28 1b c0 f7 4c 2b ef f5 a7 f2 3f
       -6.7893732666097595 1.1660060255570082
0002e0 b7 7f 33 6e dc 08 e3 bf 47 59 ad de d0 aa ea bf
       -0.5948316719404748 -0.8333515500224075
0002f0 6e ba bb 9c d5 bc e5 bf 48 ea 50 68 94 82 e0 3f
       -0.6793010770032433 0.5159399068282449
000300 30 5f 6e 02 01 d3 03 c0 e6 26 c4 ee ab 0e dd 3f
       -2.478029269212037 0.45402048413289575
000310 30 c9 2f 86 05 35 b7 bf 31 a5 c4 ab b7 b2 dd 3f
       -0.09065279508630364 0.4640330483840272

884 f8 [10, 10]
000000 a3 72 93 12 07 82 e2 bf fe 36 9d 1f 97 31 0c c0
       -0.578372513085544 -3.5242140264371065
000010 bc 7a 43 2a 58 d0 16 c0 18 b6 7e 02 21 67 0a 40
       -5.703461323135965 3.3003559298438283
000020 b6 1b ff 05 5b 09 14 40 c1 64 ae 60 09 23 0a c0
       5.009136289306232 -3.2671077302189535
000030 c7 d2 d4 74 ae df 1f c0 7a 2f 84 69 a6 ab 09 c0
       -7.968438935746867 -3.2088134997811126
000040 1c 9f 92 6c f6 38 f6 3f fd 12 55 21 1f c3 25 40
       1.3889068833468121 10.881096879611045
000050 bb 63 9a b8 f3 6f 01 40 60 20 d7 a8 de a1 0d c0
       2.179664079867931 -3.704037970605029
000060 94 7f db 07 00 31 ea bf f3 fd 84 29 1e 2c 08 c0
       -0.8184814599480768 -3.021541904803365
000070 03 f3 c1 5d c1 6c 0a 40 13 81 5f 03 c6 f2 eb 3f
       3.303103191834795 0.8733854356651441
000080 bc 3c e9 6f de a8 da 3f b9 af 5c d3 42 0d 01 c0
       0.4165569393998785 -2.1314751160298013
000090 f4 05 f8 19 d6 d5 f8 3f b2 44 30 5e 13 79 0d 40
       1.5522061361701818 3.684118972633393
0000a0 70 2e eb bb 32 f9 e3 bf d2 52 ee 6e f0 07 c4 bf
       -0.6241696996962229 -0.15649228493261674
0000b0 d8 d8 ae a9 9b 8c f5 3f a6 61 7d 78 15 0e fc 3f
       1.3468281391374628 1.7534384447700204
0000c0 c0 dc 0e 8c 9b 01 ed 3f 6c 67 2f 2a 1b 24 bf bf
       0.9064462409504799 -0.12164468555365965
0000d0 70 e5 a3 48 ce 7f 16 c0 0d fe 4c 31 6e fe f3 bf
       -5.6248103475603415 -1.249616806584416
0000e0 43 00 3f 7d a3 64 fc 3f d8 9e bc 04 c6 d2 03 40
       1.774569977991647 2.477916752821198
0000f0 ee b8 60 30 29 bc cd 3f ce 32 bc c8 39 e8 01 40
       0.23230471479605036 2.2383914644654856
000100 25 5b fe b1 1f 64 20 40 a2 15 b7 0b a1 98 e1 3f
       8.19555431585247 0.5498814801036824
000110 df d3 4a fc 3c 78 13 c0 2b ba 62 11 02 aa e4 bf
       -4.867420141284099 -0.645752939182619
000120 b6 73 ce 9a 16 21 f2 3f 4d 5d 46 99 6b 05 02 c0
       1.1330781981589388 -2.2526466345404175
000130 90 05 a5 20 51 8d 0e 40 8c 88 2c 92 96 91 12 40
       3.8190023947106013 4.642175945251562
000140 48 48 91 4a 39 f0 0a c0 c0 4d 50 de 9b 91 f6 3f
       -3.3672967744433073 1.410549038327062
000150 d0 9e 98 1c e1 ac f5 3f 82 b4 e7 85 46 8b f3 3f
       1.3547068707502383 1.2215028029125112
000160 0a fe 34 13 21 6c 06 c0 32 24 a4 94 bf b2 f2 bf
       -2.8027974606081942 -1.1686397367759693
000170 ab 4e 6e 47 65 5f fd 3f 76 e5 aa e5 93 67 ef 3f
       1.8357899465817507 0.9813937650389295
000180 0b d9 25 b9 19 ed 12 c0 2c 99 7c af f4 b3 1d c0
       -4.731543438849495 -7.425738088588599
000190 ac b5 ca 51 1d a6 d8 3f 72 22 cd 37 a1 c6 ea 3f
       0.3851388262508759 0.8367467965955042
0001a0 58 4c e5 c3 21 8f 0e c0 e9 99 8d 35 27 c3 dc bf
       -3.8198886207915557 -0.4494112036685736
0001b0 d0 b7 1e 5b 21 d6 fd 3f 02 dd 53 4e fe 10 11 c0
       1.8647779044508646 -4.266595100277529
0001c0 20 a5 85 cd 37 ff cc bf 80 21 c1 76 05 7b fd 3f
       -0.22653863463646307 1.8425345076412611
0001d0 ca 0c 74 17 71 10 0b c0 dc 50 42 0e 34 38 e1 bf
       -3.38302820513636 -0.53811075959177
0001e0 7d 73 09 33 e7 fb fc 3f a6 6e 80 64 6c 23 fb bf
       1.811499785769427 -1.6961482930991365
0001f0 c7 9f c8 f6 bc 9a f6 bf 8b ef 9b 89 27 ad 06 c0
       -1.4127778663623631 -2.834548068114548
000200 28 e2 5f c0 d2 a8 06 40 d8 ff e2 e6 09 33 15 c0
       2.83243322651494 -5.299842460255569
000210 ba ba 99 de b5 09 df bf 3b 02 e9 f1 29 c7 05 c0
       -0.48496767748194325 -2.7222479724153152
000220 00 f7 10 da 10 67 20 c0 d8 17 23 e4 a2 33 0d c0
       -8.201300444193748 -3.6502130339822365
000230 e8 f4 35 6d 42 64 03 c0 ca b0 82 09 bd 93 02 40
       -2.4239548236933963 2.3221379035004235
000240 fe f4 d4 c5 50 d3 03 c0 12 a4 4e bd 94 d1 00 40
       -2.478181405602867 2.1023344792961405
000250 57 4e 9f e1 06 cc f5 bf c2 88 9e 4f 7d 79 ff bf
       -1.3623112500544232 -1.9671605215194607
000260 c8 28 b4 ff ec 62 0a 40 ff 24 c2 62 0f 80 fe 3f
       3.2983036019187217 1.9062646730183699
000270 b4 31 b5 af f3 81 0c c0 aa ef 1e 79 40 43 19 c0
       -3.563453076092822 -6.315675632966228
000280 bb 31 76 26 b8 f5 f5 bf 74 f5 46 c8 ab 06 18 40
       -1.372490072480203 6.0065146725950065
000290 12 bf d0 55 88 2d 15 40 64 65 98 51 d0 6a 05 40
       5.294465390077464 2.6771551489479624
0002a0 3c 95 6d d6 76 78 01 c0 ed 1e bb bf 31 69 0a c0
       -2.183820414752203 -3.301364419839834
0002b0 10 bc 5e 14 3c 66 16 c0 e4 bf 4c 04 e8 7b d5 bf
       -5.599838560373442 -0.3356876413336052
0002c0 32 f8 4b f7 8b a9 d5 bf 74 7d 0e 01 83 85 e6 3f
       -0.3384733119017965 0.7037978191982988
0002d0 a3 c1 f1 4c 7d 68 20 c0 b2 1b bf 8e b8 ea 11 40
       -8.204080967437056 4.479219656385725
0002e0 69 96 97 8c 02 80 18 c0 16 39 fe 3a f4 f9 17 40
       -6.1250097243806545 5.9940957276978875
0002f0 c6 e6 42 13 e1 be f8 3f 7c 87 96 2c 21 96 06 40
       1.5466013672252514 2.8233054622114064
000300 84 a1 94 64 7a 71 02 c0 34 f2 92 72 1c 31 cf bf
       -2.305409227166992 -0.24368625254091258
000310 63 df 54 0c 70 b1 f4 bf 54 a5 4c 34 74 40 13 c0
       -1.29331974808698 -4.812943284204568

442 f8 [10, 10]
000000 a8 20 af cb 98 7e bd bf bb 5b 5e 4b 0f 8e e8 bf
       -0.11521296475177911 -0.7673412773173064
000010 68 01 2e 16 8a 0b fd bf a5 0e 9e 0a e4 8b eb bf
       -1.8153172365565187 -0.8608265120860393
000020 e8 41 46 12 c6 8a 0c c0 44 aa 85 4c 73 ce fd bf
       -3.5677606036845084 -1.8629029263635326
000030 29 d6 73 2d c2 b4 f1 3f a9 57 b8 26 d2 dc 05 c0
       1.10663049464109 -2.732822706700024
000040 5c 77 f0 36 c9 4e ce bf 76 69 98 7c bf 8c d2 3f
       -0.23677935774406478 0.2898405758620791
000050 a8 85 14 e2 42 cb bc 3f 22 0e b6 d4 53 67 03 40
       0.11247652072463288 2.425452863508114
000060 06 9a f1 ad 85 b4 05 c0 27 40 23 e7 9c 23 e8 3f
       -2.713145598350141 0.754347278061691
000070 f2 8e 29 18 d1 3d fb bf 5b 0a 0e a1 ef 17 19 c0
       -1.70259198606885 -6.273375050050698
000080 2d 2d b7 ac 2e 72 fd bf cf 87 2f 96 15 2a 08 c0
       -1.8403765436840545 -3.0205489857916983
000090 ec 90 64 52 9e 51 1d 40 f0 1b 1d d5 73 0f ec 3f
       7.329705512416904 0.876886287915907
0000a0 73 0c a9 18 1b b0 16 40 cb 96 ed 2e 6f 47 06 c0
       5.671978364293966 -2.7848800340897006
0000b0 fc 6d 58 6a 1b de 02 c0 fd 99 11 01 24 8d 16 c0
       -2.35845072824827 -5.637832657527267
0000c0 06 63 bc 5f 00 98 09 40 2a a8 bf 02 e8 80 14 c0
       3.1992194632879345 -5.125885050723847
0000d0 67 66 19 5e 86 d4 16 c0 b4 0b b0 a2 7e 56 f7 bf
       -5.707543821621221 -1.4586168627726979
0000e0 9d d7 bf 6c 38 01 01 c0 41 bf dc f6 fb 46 16 c0
       -2.125595903019486 -5.569320542548497
0000f0 7c d1 83 30 f4 91 a6 bf 98 14 cd 99 fe 5c f5 3f
       -0.04408228962157332 1.335203743730096
000100 0e 1b 26 26 2d dc f0 3f 7d 3e c5 cc f9 a5 10 c0
       1.0537539949597803 -4.162085723437142
000110 ac 24 49 92 da ea 14 40 d1 cf 26 c8 e8 3e f6 3f
       5.229349408830938 1.3903587168142517
000120 08 79 b3 4a d4 f9 0b 40 ed a3 8f 1f da 43 f9 bf
       3.4969869457264657 -1.5790654404502178
000130 50 db c0 3c 98 8b f3 3f 48 91 ca 72 9a c2 02 40
       1.2215807316949459 2.3450211494511315
000140 2b 4b d2 cd 96 09 f6 bf 05 0b fe eb 39 df ef 3f
       -1.3773410835171471 0.9959992989755341
000150 2d 86 53 f6 a2 aa fd 3f ca 71 bd ab 62 fb e4 3f
       1.8541593191261072 0.6556866983697145
000160 78 9f 63 24 4d b9 f1 3f d6 a9 76 81 6b 57 08 c0
       1.1077395841075184 -3.042685519632168
000170 ac 1d 1b d1 f5 89 e0 3f 7a 91 e6 c7 d6 59 e6 bf
       0.5168408474063901 -0.6984666733083451
000180 51 fc ab 44 7c 91 e4 3f 7b c0 c8 4c a2 de f8 3f
       0.6427594510313474 1.5543540000326448
000190 84 8f a1 9a ae bd fe bf e2 79 ab 02 7a cc 0f 40
       -1.921309093501777 3.974842091424976
0001a0 d7 d0 8b 41 79 29 0d 40 d9 c8 91 ce 44 eb ff 3f
       3.645250808791484 1.9949386662597617
0001b0 ce 48 bb 13 ab 41 ff 3f 7e 08 09 d2 5e 4f e5 bf
       1.9535322924389678 -0.6659387686015774
0001c0 d2 cd af 6b b2 3f 00 40 dd c7 86 03 ee e8 02 40
       2.031102029135334 2.3637352252489863
0001d0 3c 94 ad a0 58 4f 1c 40 e6 62 08 45 7e 03 04 c0
       7.077486525148796 -2.5017056840118697
0001e0 e1 1e 83 f2 03 04 eb 3f 24 a0 d0 fe 2b e9 03 40
       0.8442401634756288 2.488853445760485
0001f0 c6 b3 f6 8f 4f f6 0d c0 79 02 90 19 9c 44 0c c0
       -3.7452689406549977 -3.5335008618424664
000200 7d d8 66 4a 72 a6 fd bf 9e c5 bc f7 cc 69 f8 bf
       -1.8531363397901537 -1.525830238079244
000210 99 a6 4f d4 04 51 ed 3f a2 a9 39 a4 f3 e2 0e c0
       0.9161399981214401 -3.8608162717911947
000220 9a 2d 83 ed c7 09 ed 3f d5 7e d2 b2 90 b9 12 c0
       0.9074439658083293 -4.68121604356539
000230 98 72 78 2a 24 63 f8 3f d8 32 9f 10 dc 59 03 c0
       1.5242044123653269 -2.4188767717917976
000240 2e d3 ee fe cf bf f7 bf aa 89 0f 82 e5 4c 07 40
       -1.484329219657592 2.9125471268645997
000250 95 ce 60 39 47 e2 24 c0 be 62 15 2f 40 74 f6 3f
       -10.441949647013908 1.403381523056097
000260 91 ac de 19 c8 19 f4 3f f1 a2 13 e0 51 6b 01 40
       1.2562943468608732 2.1774022584908086
000270 50 38 bf 68 c7 22 f1 bf c5 13 0d 85 3f df 01 c0
       -1.0709909526517727 -2.234007873021684
000280 d9 5b 3c 5e 80 94 01 40 fa 97 78 ce 99 d2 f4 bf
       2.197510467736248 -1.3014162125850803
000290 22 12 e7 ab bf 31 0c c0 9c 4f 44 20 d7 37 00 c0
       -3.5242913656131956 -2.027265789112745
0002a0 83 9a eb f2 5a 75 07 c0 fb 89 9b 74 7d 71 05 c0
       -2.9323023775244237 -2.680415068623231
0002b0 a2 37 84 a1 a4 b5 14 c0 ac a2 94 1d 2a 97 f6 bf
       -5.177385829634575 -1.411905398892638
0002c0 a6 37 07 37 5a cc 11 c0 26 5e e5 35 98 8e 13 c0
       -4.4495628927378785 -4.8892525120968795
0002d0 4b 65 68 8a d5 ee 04 c0 f2 32 40 34 48 ff eb 3f
       -2.6166182339772255 0.8749123592875476
0002e0 7e 2d 2a 4c 31 4c 05 40 75 55 d0 7f 84 8b 0f 40
       2.662203402554666 3.943123816056579
0002f0 32 24 f5 d5 59 1a 12 40 6e 1f 27 57 b8 92 f5 bf
       4.525733321273082 -1.348320331993786
000300 ef 99 68 f3 0d d8 01 c0 ca 1e 34 4c 4e be 00 40
       -2.23049535906761 2.0929227784543842
000310 a7 86 ba 84 08 27 0a 40 2c fb e3 bd 46 5e 0a 40
       3.269059216444322 3.296033366699154

1337 f8 [10, 10]
000000 92 9f ec 83 12 ba fa bf 32 39 84 df ce 35 14 40
       -1.670427813844047 5.052546970792081
000010 80 66 43 eb 7b 30 c9 3f 4e f2 95 f0 a7 50 0f 40
       0.19679211604561786 3.9143828197250405
000020 a2 0d 37 81 90 5c e5 bf 28 2d 89 80 da 35 20 40
       -0.6675493739825706 8.105182663674512
000030 54 07 d3 18 e6 cf d6 bf e4 89 f3 25 13 dd ea 3f
       -0.3564391367364028 0.8394866696583532
000040 e6 a6 95 f5 80 e9 f9 bf 40 92 11 38 04 4e f8 3f
       -1.6195077508113456 1.5190469923192182
000050 d9 66 6b 5a 14 80 0f c0 f9 b0 b7 ef a7 fe fa 3f
       -3.9375388206507123 1.6871718753782814
000060 aa 6d 8c f7 66 79 0d c0 9d 0f 80 fe 9b 45 d9 3f
       -3.684278425190958 0.39487361768282786
000070 32 ba 91 a7 92 84 14 40 2b 0e 8b e9 58 f0 0d 40
       5.129465692777147 3.7423570867120097
000080 1a c4 d2 ea 6e ee 0d 40 f4 75 51 4b 07 dc e5 3f
       3.7414224954195676 0.6831089469011986
000090 e2 e5 95 04 77 8f cf 3f f8 a0 ee e3 b6 3c 0f c0
       0.24656570171263953 -3.904645710677979
0000a0 81 c4 d5 bf 56 64 f1 3f c5 07 84 69 12 20 02 c0
       1.0869967931323858 -2.265660118428942
0000b0 83 76 35 14 f9 2c 0f c0 99 f5 d7 94 ce 31 e8 bf
       -3.8969594553771585 -0.7560799510098831
0000c0 97 98 1b 6e bc cc 11 40 03 09 2b 9b 13 7e 03 c0
       4.449937553819971 -2.436560833216505
0000d0 88 e5 34 b5 c5 39 c0 3f dc 85 f4 9a e6 f4 0e c0
       0.12676307056407787 -3.8695804696915115
0000e0 3a 35 e9 29 8d e5 00 c0 c3 12 3f 0f 70 e0 18 40
       -2.1120856546682747 6.2191774732825165
0000f0 3a 10 bd 73 2b 4b fe bf 8d f5 b1 d4 b9 fd 07 40
       -1.8933519860302241 2.9988896004494507
000100 46 bd 74 c6 66 0f eb 3f cc 7e cd f7 66 9a 14 40
       0.8456300617307668 5.150783416669309
000110 28 87 4b 53 c6 55 f1 3f cc f7 58 12 35 dd 12 40
       1.0834410909378196 4.716022764854596
000120 32 90 26 12 9e 18 f5 3f ca 7c 74 ea 13 89 0d 40
       1.318510123158387 3.6919325177001143
000130 76 89 ed dd 19 56 07 40 c8 43 90 61 73 3e 0d c0
       2.9170415247073676 -3.6554935094977488
000140 a5 c1 08 f1 ab aa e1 bf 08 74 37 8b b3 83 de bf
       -0.5520839412402451 -0.4767884120499848
000150 4f 3a 85 8d b7 f8 11 c0 26 d2 c0 d1 fb ab f4 3f
       -4.4928876984182144 1.2919882005200036
000160 58 6a ac 39 85 70 df bf 98 84 9b d1 0e 03 16 40
       -0.49124270088365085 5.502986216656744
000170 be d8 d6 fb 74 1d 10 40 3a b7 fb c7 41 86 15 c0
       4.028766570079993 -5.381110310305127
000180 f2 fe fa d3 8f 7e f8 3f d8 ee a3 9e 12 d6 05 40
       1.5308988838659698 2.7295277017382027
000190 ee a3 15 09 7a 91 06 c0 28 f9 0d aa c3 7f 06 c0
       -2.8210335454682456 -2.8123849187387755
0001a0 ee b1 ac 30 14 25 be bf 73 cf a6 1a a9 01 1c 40
       -0.11775327862114413 7.001621643477722
0001b0 5a da e6 60 cb e3 05 c0 86 0e 27 2a 75 c4 04 40
       -2.736227757496903 2.5959265988511246
0001c0 d6 fb 32 83 fb b3 d3 bf 27 62 d2 af 7d 2b 15 c0
       -0.3078602582208395 -5.292471644607338
0001d0 e2 4e c7 bf 05 dd d6 bf 51 f1 5b a5 9a 2a 07 40
       -0.35724014023183603 2.8958027762111347
0001e0 85 b6 43 a1 3e 61 12 c0 28 ab 46 15 f2 a8 ed 3f
       -4.594965476758834 0.9268732467220149
0001f0 c4 ef d3 39 e3 7c ee 3f b0 b5 38 67 36 56 0e 40
       0.9527450684977272 3.7920959533864433
000200 8a f1 0c e8 2d 6a 08 40 90 ac 58 99 58 e8 f0 3f
       3.051845372099881 1.056725119599637
000210 89 0c d4 42 92 90 fa bf 38 45 bb 89 8d 50 08 c0
       -1.6602957354050736 -3.039332462337054
000220 ad ca bd 53 b9 46 02 c0 ca f5 b7 9f 99 73 fb bf
       -2.2845331709189254 -1.7157226790435396
000230 7e 8b a6 b6 f4 73 ec 3f d6 98 93 c0 19 07 11 c0
       0.8891547744172923 -4.256934174545867
000240 88 aa bd 59 3c 67 e9 3f c2 25 7e e9 e1 61 d5 3f
       0.7938520195724132 0.33409927179362964
000250 98 61 ad ee 9a b9 eb bf 40 40 80 b9 dc f8 95 3f
       -0.8664068853059232 0.02145714647491581
000260 02 d3 63 e2 ad d6 fb bf 38 84 eb 1b d2 1f 10 c0
       -1.7399119227749797 -4.031074939965997
000270 06 93 f7 fe e2 fb de bf df 29 6b 2e 70 09 07 40
       -0.484123944274231 2.8796085001424525
000280 4a cd 28 1c 76 f5 07 40 94 a6 6e e6 ea 4b d2 3f
       2.9948541831924205 0.2858836412729968
000290 34 26 a7 a6 ab c6 e7 3f ae cf 1a 09 ab 61 f5 3f
       0.7430017714443182 1.3363447528508732
0002a0 2e e8 fa 99 a6 c3 09 40 90 24 37 4e 1a ea f4 3f
       3.2205326108642316 1.3071539931573035
0002b0 eb 7b 23 90 6d 4b ed 3f 30 d6 50 09 1c b9 af bf
       0.9154575171668261 -0.06195914853780626
0002c0 2a 3c d9 05 0f 4b f9 bf c0 36 f2 61 a5 42 e2 bf
       -1.5808248737773831 -0.5706355011950208
0002d0 ec 85 1b d5 0d e9 ff bf 42 79 bd 2e ca 07 19 40
       -1.9943979572784611 6.25760720282989
0002e0 00 24 e4 ad 90 9b e2 bf 66 64 c4 63 b3 c5 e7 3f
       -0.5814898868858336 0.7428833912446293
0002f0 9c 8a 50 9c fe ca e9 bf 3f 48 9f fe 75 99 03 40
       -0.806029610921843 2.449932088123233
000300 34 1d 8b 6f 02 18 ea bf 40 69 a7 b8 6c d1 eb 3f
       -0.8154308489401161 0.8693145376703697
000310 82 50 a6 c6 be ec f0 bf 8c b4 95 51 70 5f f7 3f
       -1.0577991256477906 1.46080047482545

157075 f8 [10, 10]
000000 a4 1f 9b 4c f2 79 05 40 c5 8e ed 65 34 7e fe bf
       2.684544180377957 -1.9058116895256927
000010 93 60 ee 99 79 f1 f3 bf 88 a6 cc ee 1e 44 f3 bf
       -1.2464538586555463 -1.2041310623266401
000020 34 8b e4 c5 79 a3 07 40 18 14 5b dd 5f 4c 06 40
       2.954822107350447 2.787292222349162
000030 0c 3f fc a4 8e df f7 3f df 67 b1 73 0d 18 d2 bf
       1.492079395746205 -0.28271805093902275
000040 cc 00 71 32 df 29 12 c0 11 46 a3 6f 82 b6 f3 bf
       -4.540890491625941 -1.232057987294301
000050 fc 36 bf 65 b5 28 02 40 6d da 3e 88 9f 93 f2 3f
       2.269877238176262 1.161040813645424
000060 68 bf 9f 4a b3 d0 b2 3f 58 12 82 d2 a0 9d e9 3f
       0.0734970147311721 0.8004917251096897
000070 a6 eb 50 ea 19 11 d4 bf e9 db 8f b5 a3 91 f7 bf
       -0.31354377634459707 -1.4730565159095426
000080 1d 42 6b 45 39 4f f4 3f 36 0f 2c c2 04 54 0a 40
       1.2693417274168788 3.291024701089465
000090 39 42 55 ae b7 42 02 c0 f0 eb 34 c8 7f d6 f7 bf
       -2.282576906182183 -1.4898679562163544
0000a0 58 fb 93 eb 3a 49 d9 bf 3e 9d 95 b6 97 1e 02 40
       -0.3950946140829976 2.2649378075035704
0000b0 2f 33 ee f3 a4 90 fc bf 1a 86 3d 28 3d 02 c1 bf
       -1.7853135612996984 -0.1328808256612753
0000c0 eb ef f9 88 73 2b ff bf 26 77 9e 3f cb 02 f5 bf
       -1.948108229697932 -1.3131821141354947
0000d0 da e1 ce 9c 3d 42 e5 3f 71 0a bc 02 94 f0 0e 40
       0.66433601976956 3.8674698079715246
0000e0 06 81 66 05 55 7b c5 bf 4a 2f f7 2d 27 04 f0 bf
       -0.16782629741374694 -1.0010139270334144
0000f0 ec e6 4b ed 55 cd f3 bf ed 90 7e c8 fb d3 10 40
       -1.2376307744402153 4.207015164113028
000100 8d 4e 06 58 42 0d 16 40 34 e6 d3 cd 66 fa 04 40
       5.512948394188823 2.6222663955966485
000110 b6 a8 de a7 17 fe d6 3f da e3 c6 b5 b3 cc 0e 40
       0.3592585696557181 3.8499521447488236
000120 26 6d 95 f1 dc 4a 04 c0 b5 3f b0 58 06 71 10 40
       -2.536554229138022 4.110375772244812
000130 de ee 95 6d 67 e0 13 40 90 31 32 4e a3 ae d9 3f
       4.969144546772183 0.40128405224165764
000140 f2 28 fe 23 b4 c1 ee bf 42 94 c7 56 0a 64 c7 3f
       -0.9611454680428138 0.18274049031529854
000150 f6 6d ce 3b a2 ae 14 c0 55 37 33 bf 13 e4 04 c0
       -5.170540747141322 -2.6113657891755033
000160 26 a3 95 d8 04 a4 c3 bf e0 f8 a0 3c 73 ca cd bf
       -0.15344296050468492 -0.23274078808203225
000170 d1 f5 4e d7 cd ae d9 3f d7 aa fa a6 e4 06 fa 3f
       0.40129419351782497 1.62668290354002
000180 c4 a0 d2 5f b4 21 de bf fa b4 7a 9c 65 93 d2 bf
       -0.47080716474239304 -0.29024639397796614
000190 a2 89 4a 53 e2 4f f2 3f fb b0 d9 4a 96 0a 00 c0
       1.1445029500542678 -2.0051694724735376
0001a0 a1 72 79 fe 2c 44 08 c0 98 a2 b6 49 3f e8 10 c0
       -3.0332889443219107 -4.226803924343265
0001b0 cf af d9 8b a5 06 01 40 22 c7 f5 72 69 31 06 40
       2.1282454419906354 2.7741269093757106
0001c0 0c 27 7a 0e 21 60 05 40 7a 82 87 47 6a 42 ce 3f
       2.6719380503681176 0.23640182964938444
0001d0 6e 46 d5 1d b8 c7 11 c0 e4 81 6d 1c 99 ca f8 bf
       -4.445038286344795 -1.5494624243220807
0001e0 60 4e 3b ab 8a 48 f9 bf db cc 20 04 19 86 fc 3f
       -1.5802103699433232 1.7827387009863773
0001f0 2a d4 fc 2d b6 bf f1 3f 44 01 6b 4b 9a 5a 08 c0
       1.1093045994177921 -3.0442396060972516
000200 a0 98 2a ba 26 4c cb 3f e6 90 42 49 ca db dd 3f
       0.2132614525809844 0.4665399280004422
000210 fe 01 c4 c6 5c 7e e3 bf 9f 92 de 4e 45 51 10 40
       -0.6091750986234385 4.07936595185734
000220 30 fb 90 f1 af 65 fd bf 0c 60 1d 68 b5 0b 09 40
       -1.8373259960350872 3.1307170995678515
000230 63 b3 bb 42 d1 86 19 c0 54 c0 02 2d f8 d4 0b c0
       -6.381657641130775 -3.478988982817137
000240 aa 14 65 a6 4d 8d f6 bf 9e 03 99 10 00 ac 09 40
       -1.4094978809164709 3.208984498662587
000250 a7 02 3c 9f f6 51 e9 bf 1e 93 ff 3b 96 3b 08 40
       -0.7912552938506295 3.029095143067379
000260 1e 80 5c 64 bb 06 03 c0 b8 02 26 aa 77 a0 02 c0
       -2.3782871094445133 -2.328353242192261
000270 18 14 80 11 75 61 04 40 e8 66 5a 70 5e 04 14 40
       2.547586571427484 5.00426650573511
000280 f2 ef 5b 0f e6 48 fd bf cc 6a 6f a7 b6 4f f2 3f
       -1.8302975273099915 1.144461301845399
000290 aa 44 8b a8 0e 65 f7 bf 5b e4 cd 67 08 b7 02 40
       -1.4621721824408191 2.3393715009411102
0002a0 40 92 6d 9b a8 24 0c 40 44 1f 1f 5d 5f 0f 09 40
       3.5178997175992492 3.132506110679886
0002b0 0e 4d bb f2 65 ea 0d c0 0d b4 f7 66 c5 ac 02 40
       -3.739452263203595 2.3343608898490005
0002c0 ca 62 e2 a1 09 a0 e5 3f e1 a6 84 fb 20 a6 08 40
       0.675785843067467 3.0811175966126574
0002d0 5b 38 2e ab 6b 83 15 c0 1e f0 bf fc 01 e3 f3 3f
       -5.378340410896352 1.2429218171155365
0002e0 f2 32 97 ab 93 12 f2 3f a1 35 28 73 fd 9d 20 40
       1.1295353605993879 8.308574293764481
0002f0 60 ee 2d df 2a a6 ff bf 7c 3d 74 10 c9 1a 12 40
       -1.9780682294794119 4.526157624335038
000300 77 9b b2 15 a2 40 0f c0 92 f7 ba de bd 4c ff 3f
       -3.9065591521388643 1.956235761680976
000310 16 5a 6a 0d df 01 19 40 41 0f 5b 69 f6 30 0b 40
       6.251827439895825 3.3989074927248173

31415 f8 [10, 10]
000000 50 de 77 09 fd 76 c0 3f 1e a6 c5 d7 0f 4c fe bf
       0.1286312385779973 -1.8935697964283302
000010 c6 ab d0 7f bd e9 03 c0 a5 b2 85 a1 44 7d e0 3f
       -2.4891309724384625 0.5152915148479066
000020 29 10 91 f8 95 4b 10 40 57 03 f6 16 ee e8 d2 3f
       4.073814281324339 0.29546692125591306
000030 a1 e0 56 22 11 dd 0c c0 af fb ad e6 cb 49 ee bf
       -3.607942837024965 -0.9465083604298935
000040 b9 e2 79 46 7f d4 10 c0 51 ce bb 07 d9 86 f3 3f
       -4.207516766728696 1.2204218198866281
000050 ad 67 a3 02 e1 f7 02 c0 94 d0 2f e1 b3 60 f0 3f
       -2.371034641849255 1.0236090465887502
000060 98 ab 5f c6 e5 3f cf 3f 58 90 78 91 19 23 cd 3f
       0.24413749872414026 0.22763366320680478
000070 3c 2e 4d 5b e4 f1 ef bf 30 1a 95 22 0b 5c a8 3f
       -0.9982778342468417 0.04757723614834608
000080 b4 c3 e0 b6 61 a8 f6 bf 2c 14 b3 19 f9 fb f9 3f
       -1.4161088126822792 1.624016857517982
000090 35 65 12 79 1a 06 fc 3f 60 d3 d2 85 ca b7 04 40
       1.75149009031004 2.5897417502368825
0000a0 b0 5d bf dd 17 e7 e2 bf 2f 7b 9f 18 29 8f 03 40
       -0.5907096224790873 2.444902603499393
0000b0 70 6f 05 56 23 21 cc 3f fa 62 74 b4 07 3d f5 3f
       0.21976129246001674 1.327399926091117
0000c0 c2 fe b9 cd cd 9c f5 bf 9d c6 4d 02 67 65 e0 3f
       -1.35078220712596 0.5123782200809789
0000d0 8c 98 23 12 d0 8d bd 3f 38 79 44 66 e5 62 ba 3f
       0.11544514124725164 0.10307153460278051
0000e0 78 80 aa 17 f9 c0 ae 3f 72 4e 6d a5 c8 84 01 c0
       0.060066017283362194 -2.1898358272535967
0000f0 f0 f5 7e fa c1 fb fb 3f 7c f8 34 05 70 13 d4 3f
       1.7489642891881623 0.3136863756989283
000100 4e 1f 76 56 a8 33 0d 40 97 ae 11 d6 02 4d 0d c0
       3.6502234225080548 -3.662603065886127
000110 53 41 62 45 49 e2 d9 bf 59 ef 6f f4 1c 3b 04 40
       -0.4044364144874823 2.5288638207111203
000120 24 b8 6e f6 69 e4 d8 3f 40 84 06 12 d4 3a b8 bf
       0.3889412790839535 -0.09464765014719578
000130 c0 79 92 5b 1e 62 b5 bf 61 e7 32 d3 2b 6a e5 bf
       -0.0835284207882756 -0.6692103505113033
000140 58 ad 7b 26 a7 7c 1d c0 bd 1e 07 b0 02 1e f4 3f
       -7.371731377886441 1.257326781853336
000150 d2 81 16 8c 58 ff 09 40 2f 3e be 3f 51 41 fd bf
       3.249680609166014 -1.8284466257063163
000160 78 9a a1 30 46 74 14 c0 1a c5 c0 52 4a b8 18 40
       -5.113549003470887 6.179971020713561
000170 bb ff 7b 79 ee 55 06 40 2e 40 58 cb 4c 63 f5 3f
       2.791958760353706 1.3367431586411942
000180 be 94 37 5d 03 4f ff bf a6 05 b1 50 56 15 03 c0
       -1.9567903176587573 -2.3854185394308898
000190 e6 ea 1b 56 e3 2c 18 40 b2 39 1d d2 2e 66 fc bf
       6.043835969404176 -1.7749469955048025
0001a0 5f b4 c5 3f 89 d5 13 c0 e6 ad 22 b3 fa b9 fc 3f
       -4.958531376306467 1.795405101535715
0001b0 dd b3 90 8d 4a d3 04 40 90 78 0d e3 8d 71 f7 bf
       2.603169542292092 -1.4652232045405391
0001c0 2f 7e ee 65 50 71 05 40 98 69 13 79 8f 1e a7 bf
       2.6803291285903224 -0.04515503266312065
0001d0 2e 7f 5c 00 ae 0b ef bf 6e 3c d8 f6 89 c0 f3 3f
       -0.9701757437760301 1.2345065729494098
0001e0 9a 8f 94 32 9a 7b e2 3f 3c 6d c3 4b 4e f3 0e 40
       0.5775881755730439 3.8688016814245696
0001f0 80 20 85 56 a8 c3 06 40 d0 8a 93 5c d1 1e 11 c0
       2.845535922944748 -4.280095526223434
000200 9e e8 fb 17 92 c7 e6 3f 5b 82 b7 e6 a9 e4 f3 bf
       0.7118616550863128 -1.2433260929466516
000210 a2 3b c6 37 4d 00 19 c0 87 18 17 02 1b 79 01 c0
       -6.250294562791995 -2.1841335452364237
000220 88 54 d3 e7 68 70 e7 3f 02 bd e3 af 89 00 11 40
       0.7324718978731122 4.250525234484714
000230 f8 78 43 dc ad 78 e8 3f 2e a4 f8 c9 b5 29 f2 bf
       0.7647313406012293 -1.135183133077827
000240 9b 2a 9e f2 7c b0 f4 3f 26 61 08 2e a7 5a f9 bf
       1.293087909437111 -1.5846320913461311
000250 e2 12 64 bf 40 98 07 c0 2a 42 25 c5 6b 03 d0 bf
       -2.949342246285924 -0.25020879986280653
000260 00 f7 29 c2 7f ae 69 3f 34 f5 d6 9b 9e 78 f0 3f
       0.003134965446689786 1.0294481360900365
000270 e6 38 9e 6d c5 4b e2 3f 23 5d 78 3e 60 30 07 40
       0.5717494145372057 2.898621070907795
000280 b0 1b f9 af 45 34 03 c0 cc ab 1a 18 82 5f a6 bf
       -2.40052354315727 -0.04369741958847548
000290 54 b5 db 35 87 4e e8 bf 6e 31 25 a6 92 6f 0a c0
       -0.7595859577101387 -3.304478929529231
0002a0 48 e2 04 31 12 9a 13 40 11 b2 72 e2 8c 46 0e 40
       4.900460019991961 3.784448403477889
0002b0 44 8b 6b 7c 09 a7 f4 3f 10 da cc cc 1d ca ee bf
       1.290780530944816 -0.9621724128726914
0002c0 20 ed 10 31 80 0a fb bf 82 cd 47 a4 9b 1e b4 3f
       -1.6900636593480343 0.07859204064134498
0002d0 80 81 c3 3d d0 ec 9e bf 3c 46 1a 95 77 5f 01 c0
       -0.030200246591336022 -2.171614804138498
0002e0 18 f7 61 05 72 64 01 c0 2b 17 4d b8 15 ad fb 3f
       -2.1740456028482065 1.7297570418608739
0002f0 44 2a ac f1 88 ca e7 3f c6 b0 26 64 58 63 10 c0
       0.7434735031286626 -4.097016873227579
000300 68 5e 9e 95 26 b6 08 c0 de 32 5c a7 b9 7e f4 3f
       -3.0889407814936938 1.2809387719636827
000310 6c e8 ef da 67 51 fd 3f ba e6 23 09 82 38 13 40
       1.8323744346839943 4.805183546844711

5200 f8 [10, 10]
000000 bf b6 a0 50 67 e5 85 3f 1e d0 66 7d 24 ac 0b 40
       0.010691458843293032 3.4590539738656068
000010 a2 d1 4e 35 b7 8c f0 3f 9b de e9 0b 92 9d e4 3f
       1.0343544084872538 0.6442346794783192
000020 d4 3c 76 d3 7e 1e 06 c0 3b ce 8b ff e6 26 e7 bf
       -2.7648903389414077 -0.7234988204131193
000030 35 33 39 82 88 15 e5 bf 3f da 13 1f 9e be ff bf
       -0.65887856897607 -1.9840375150648837
000040 00 1c b6 dd 73 2d 7f bf 69 50 cb d8 e5 17 09 c0
       -0.007611706353947589 -3.136668866829542
000050 71 2e 81 51 5f 7f 00 40 ba 1f bb 30 f4 44 06 c0
       2.0621935241268194 -2.783668881140298
000060 7e 62 d0 69 da ac 10 40 bc 5e 41 da b3 db ff 3f
       4.16880193075542 1.9911383176421813
000070 d9 68 f0 54 e1 bb 13 c0 eb cb c4 f3 03 20 01 c0
       -4.933476760075984 -2.140632538264517
000080 78 d8 67 4b c0 48 01 40 5a 4c c5 d1 30 2c 10 c0
       2.160523022753349 -4.043154981295709
000090 02 4f eb 53 7c 89 0b 40 bc 6a 67 42 ef 4e 18 c0
       3.4421316677270406 -6.077084577142781
0000a0 55 82 90 4f 41 96 f6 bf 66 78 7f 09 b7 ae f8 3f
       -1.4116833789813843 1.5426550265324521
0000b0 66 64 69 5b 6b 19 0b 40 c7 4a f6 18 d2 68 fa 3f
       3.3874117986238614 1.6505909895974342
0000c0 e0 14 b7 44 24 2b d4 bf e8 03 a8 71 44 13 bc bf
       -0.3151331587835795 -0.10966899657070395
0000d0 f8 47 4e e4 a3 56 e0 3f af 4a fd 2f 41 7b 02 40
       0.5105761965844513 2.3101829289601805
0000e0 10 6c 04 06 47 41 ff bf 3b 85 6f 89 96 d3 00 40
       -1.953436873917557 2.1033144700201354
0000f0 26 50 6f 1c 92 e6 01 c0 41 f4 3b 94 3c da 13 40
       -2.2375833722562843 4.963121715697583
000100 8a f3 7d 2e f4 ff da bf cb 98 16 f7 45 3c e3 bf
       -0.42187218227609746 -0.6011075807516816
000110 36 71 5e de e3 58 0a c0 0b 92 a8 9a 23 73 00 40
       -3.2934033749171716 2.056220253247607
000120 13 77 22 4c aa 1e fd bf 90 16 c3 56 35 e4 f0 bf
       -1.8199866270073854 -1.0557149304526412
000130 96 27 37 a6 77 ea f0 bf 96 34 74 4f b1 89 11 40
       -1.0572430126944474 4.384465447871795
000140 9c 36 a3 83 c3 68 fe bf 79 ee 97 b8 f8 7f 15 40
       -1.9005770818797947 5.374972233079114
000150 37 ca f1 8e 3f 66 e8 3f 54 48 0d ad ce 7a de bf
       0.7624814788708311 -0.4762455644569219
000160 50 17 c8 7b 9d 71 f6 bf d4 6d 5b c4 fe f0 f4 3f
       -1.4027380786150907 1.308836714763733
000170 38 cb 59 2e 03 a6 07 c0 8e f2 ad 86 ef fb 09 40
       -2.95606075488595 3.24801545351358
000180 bc b5 4e b3 68 04 00 40 4d db e2 3e 80 d2 14 40
       2.002152825202499 5.205567343326789
000190 09 de a6 ed be bc e0 bf 12 6f 1d 9a d6 e7 f3 3f
       -0.5230402604710785 1.244101144801736
0001a0 98 4a 96 b4 34 76 0d c0 db 9d e8 60 ff fd 09 c0
       -3.6827177151074686 -3.2490222521771392
0001b0 bd 8d 9e 08 63 4f 0e 40 d0 c9 e4 3c 1b 5c a3 3f
       3.788763110483812 0.037812091048539664
0001c0 bd 6e 8b 01 de bd 04 c0 26 21 5b ae 66 7d e9 3f
       -2.592708599155087 0.796557751215947
0001d0 52 9c 07 31 e6 14 e1 3f 05 c2 cb a7 c4 65 00 40
       0.5338011701213736 2.049691496759126
0001e0 0e 41 c3 d2 bd ec f8 bf 8b 1b 15 33 d6 7f 04 40
       -1.5577982170980849 2.562420271951344
0001f0 b0 da f3 1e a4 9f fe bf 20 f0 27 6d d0 da c4 3f
       -1.913974877270146 0.16292767839320366
000200 c0 48 d8 df 25 10 d6 bf 80 b0 f3 33 ea 25 01 40
       -0.34473559245919816 2.143513112901985
000210 dc bb 1f a9 c8 88 fb bf 94 a6 3a f9 45 26 e2 bf
       -1.7208944898991296 -0.5671720378642982
000220 00 60 21 2b ef cc 03 40 d4 a1 e5 2c b4 b5 10 40
       2.475065552669548 4.177445127025255
000230 13 e6 07 aa ab 42 07 c0 a1 f1 d8 4f 6c 76 1f 40
       -2.9075539859447956 7.865647552124217
000240 20 61 f4 22 21 62 11 40 90 bb 50 77 2c 99 d3 bf
       4.345829530873999 -0.3062239804448206
000250 ae 5d 82 ad ce 57 00 c0 cb 48 47 ff 55 3c f4 bf
       -2.0428746753129507 -1.2647304508032444
000260 a3 a9 e9 02 52 75 dc bf 72 4a 91 5f dc 77 f5 3f
       -0.4446606663174412 1.3417628987414472
000270 b0 bc e2 be 7e da 13 40 83 3a 2a de f3 2f 1b 40
       4.9633741212739295 6.796828719451358
000280 df 41 ee ba af 2b 11 40 7a 4c 4a a1 bc 29 06 c0
       4.292662545005867 -2.7703793144988227
000290 5a a8 25 e6 c1 51 19 c0 ee b0 d3 a6 d5 98 ff bf
       -6.329841228531302 -1.9748131291080955
0002a0 f3 e0 7c 24 71 1a 14 40 c9 22 7f 82 80 c8 0e 40
       5.025822229501716 3.8479013629006187
0002b0 18 8a 54 df 86 77 12 c0 61 76 d2 d9 7a 35 ef 3f
       -4.616725434813382 0.9752783064211138
0002c0 fa df b0 dd 07 9c f5 bf e6 1c 85 96 6a 79 f2 3f
       -1.3505934390832395 1.1546426658331312
0002d0 3f b3 f7 fb 00 1b 02 40 9c b6 d3 4a 54 e9 02 c0
       2.263185471054754 -2.363930306039789
0002e0 c4 5d b2 3b c2 3a d9 3f 28 dd 54 a5 ef 2e b8 bf
       0.3942113478637703 -0.09446618830121578
0002f0 a0 a0 c7 f4 64 1f 09 c0 8f b6 65 7a a0 7a f3 3f
       -3.14032927736487 1.217438200106162
000300 12 2a eb 46 a5 35 13 c0 04 4c f5 cd f8 47 f4 bf
       -4.802388294318478 -1.2675712628595202
000310 c2 d2 75 57 69 49 f4 3f 28 e7 6e 82 68 ee e3 bf
       1.267922727243033 -0.6228525683902477

62830 f8 [10, 10]
000000 7f 65 2e 5d f7 d4 f0 bf 0e f9 e8 b2 82 fc f2 3f
       -1.0519937171833076 1.1866480816530074
000010 d8 ae 17 4d 16 bc e1 bf 2e 17 29 da d0 6c d6 bf
       -0.5542098527634733 -0.3503915911172609
000020 e7 1b 02 2c 0f 52 eb bf b3 cf 69 f0 5a e0 ca 3f
       -0.8537670001541046 0.2099717782872382
000030 4e c0 a2 4b 73 18 03 c0 b6 79 bf ed 76 20 11 c0
       -2.3869386586230013 -4.281703676997884
000040 e8 43 5a a7 1c b0 eb 3f c8 8e 5b e1 49 e8 f9 bf
       0.8652480381589358 -1.6192110827477553
000050 42 a0 f9 9a 27 d3 e8 3f 10 d4 c3 8a fd 01 e8 bf
       0.7757757212502912 -0.7502429685833949
000060 e6 68 92 69 0a 59 e5 3f a1 63 3c 98 74 1c fb bf
       0.6671192228270939 -1.6944471308436067
000070 25 89 8a 7e 22 c2 f0 3f 0f c2 b7 f7 e7 ae 0f 40
       1.0473961775792955 3.96040338067565
000080 ec 3e 40 56 19 02 fd bf 8f 79 a6 d6 a4 c7 f2 bf
       -1.813012444417775 -1.1737411865975422
000090 e7 ba f9 3c 0b 58 ea 3f a6 5c 08 6a 4c a7 0e 40
       0.8232475462844747 3.8316887172510006
0000a0 46 ca c7 06 f7 22 12 c0 da d8 b9 3e 17 23 dc bf
       -4.534145456260893 -0.4396417725141767
0000b0 59 51 b8 f5 a1 78 00 40 90 b3 8b 01 00 86 ca 3f
       2.058902663886482 0.20721435618852668
0000c0 d3 5b 67 23 1a f2 12 40 7e 70 cb a7 d3 ed e7 3f
       4.7364278346858155 0.7477815892448374
0000d0 de 40 9c ac 2d 80 0b 40 6e 77 86 bf d0 a3 16 c0
       3.4375871167359113 -5.65997599848002
0000e0 a8 61 53 82 38 1a f6 3f 77 63 ac e7 1b 37 05 c0
       1.3814015475128176 -2.6519086932643705
0000f0 60 d9 b3 8a 75 36 fc bf a3 99 a2 d4 73 49 e7 3f
       -1.7632956903522299 0.7277163651495367
000100 80 b1 78 09 58 a3 00 c0 9c cc 7f 4b 97 38 be 3f
       -2.079757760997552 0.1180510100673921
000110 88 d6 e7 42 8b 87 03 40 e5 1e 77 2c 02 ee fe bf
       2.4411835886956545 -1.93310754174484
000120 ac be 81 72 57 18 02 40 e6 c1 e0 bf 24 f9 08 c0
       2.2618855424733137 -3.121652125402977
000130 a4 65 8e 71 fb c8 06 40 0f 5f 11 34 8c 18 13 c0
       2.8481358405667425 -4.773972333488714
000140 7c 04 5f 7c 5b b9 fb 3f 46 da 18 ab db d5 e9 bf
       1.7327532633064768 -0.8073557225932937
000150 f3 84 e8 32 ff 66 ef bf 19 ce 86 ee 2a 58 e6 bf
       -0.9813228601744001 -0.698262658951026
000160 aa 2c 03 c2 77 48 0e c0 63 aa 39 31 fb 36 f1 3f
       -3.7853846699923297 1.0759231493817871
000170 62 66 07 73 5e 7f 05 c0 7c 5f 5c 35 5f fb e6 3f
       -2.6871918665536194 0.7181850473598241
000180 61 ed 64 85 b3 a9 0a c0 3a b4 df f8 ae 14 fb 3f
       -3.3328619405198627 1.6925496789583705
000190 bc e7 7c 8e 24 24 e8 bf 9b d4 32 53 f6 d6 df 3f
       -0.7544119627921115 0.4974952518926529
0001a0 20 52 6a 3c 28 4e 13 c0 43 9b 14 f5 75 74 04 c0
       -4.826325363148982 -2.556865610782013
0001b0 1e 52 07 06 a2 2f 07 40 09 c6 89 16 70 62 03 40
       2.8982582541450617 2.423065353469387
0001c0 5b e7 a5 5c 66 5c 05 40 10 f0 ad 3b c4 30 d9 bf
       2.670117114842396 -0.39360147312231764
0001d0 c8 d8 b2 7f 64 de 00 40 30 56 84 cb bb 93 14 c0
       2.108590123792144 -5.144271068527402
0001e0 f0 a3 52 eb dc 9a 10 40 13 47 d9 fc 1e f6 fa bf
       4.151233364981621 -1.685088145914453
0001f0 a2 7b f8 37 47 84 d5 bf 41 60 11 a2 cd b8 ed 3f
       -0.3361986204708335 0.9288089909923728
000200 0d 9c 8f b7 14 d4 0d 40 56 a3 82 32 9f 9f 18 c0
       3.728555139608494 -6.155880727027428
000210 26 40 a7 1d 9d 46 10 c0 d9 d4 7b bc 92 0c 05 c0
       -4.068958724339643 -2.631139252213512
000220 1e 4b a9 fc 71 7a fd 3f 98 13 b2 e9 bf f0 07 40
       1.8423938626844527 2.9925535447568556
000230 df ab e5 0e 11 2b 10 40 a2 53 46 a3 12 1e 00 40
       4.042057259338406 2.014683986266804
000240 2d 3e d7 20 bc fd e0 bf 18 d4 0d 0d 8f a0 05 c0
       -0.530973495618985 -2.703397848114502
000250 84 8b 94 05 d5 db c5 3f d9 19 a2 6e dc 02 05 c0
       0.1707712437865575 -2.6263970034808435
000260 ab c4 2a cd ad 7d 02 c0 7d be 2b 4d bd 01 f7 bf
       -2.3113666561772184 -1.4379246725547141
000270 9c 03 f0 31 43 80 ed 3f b8 a8 c0 6c 58 96 cb bf
       0.9219070411055443 -0.21552567777809428
000280 d8 ed 9a 15 91 95 10 40 fb 58 3f 40 3a c4 ea bf
       4.14606126554596 -0.8364535574753796
000290 b0 a0 38 18 d8 13 f9 bf de 4a b3 39 9a 78 0c c0
       -1.5673447557583522 -3.558887911590644
0002a0 e8 8a 53 64 06 b7 b5 bf 0f 98 65 de 58 c4 ec 3f
       -0.08482398938535207 0.8989681571663385
0002b0 b4 3e cd 06 8c 66 c9 bf a0 f3 f2 09 14 05 b8 bf
       -0.1984419854365932 -0.09382748835464705
0002c0 2e 2f a6 51 9a ba f6 bf 84 15 5e 73 07 d3 f9 3f
       -1.4205573262615405 1.6140207773727022
0002d0 af 9b 4d 4d 39 fe f0 bf ec 28 b4 0d f6 a4 e3 3f
       -1.0620663661627352 0.6138868587161403
0002e0 5a 49 5c be 50 b8 d3 bf 6e 59 be 9a e9 21 07 40
       -0.30812471952335374 2.891558846410752
0002f0 bf b7 fc d7 97 df 20 c0 59 42 dd a6 22 d2 fb 3f
       -8.436705350493751 1.738802577794692
000300 4b 1f 77 e9 da dc 0a c0 8b 61 30 ee c0 ea 1e 40
       -3.3578394164541456 7.729251596167511
000310 64 82 b3 3f aa 34 11 c0 67 a4 68 f6 74 fe ff 3f
       -4.30143069775713 1.999623262914861
